learning resources/4-labs/week5-Convolutional Neural Networks/cifar_net.pth (torch, 251411 bytes, 10 tensors)

conv1.weight f4 [6, 3, 5, 5]
00000000: 7617 e83d 094c 3a3e 7abc a83c ae62 b5bd
00000010: 0d6f e53d 4f05 513e 37d2 69be 157a 87be
00000020: bbe7 5b3e 233b 1d3e 4009 3d3e 2a8e 1abf
00000030: a223 aabe 22c2 9b3e b40c 2c3e 4a3a ea3d
00000040: 7fea 08bf 2317 62be ab33 7f3e 07c2 403e
00000050: c1f8 1b3d f6d1 6abe 9831 0cbd 4c34 02be
00000060: 1399 2cbe ebe7 ebbd 50da 15be feb3 e7bd
00000070: ce35 cabd bdc1 debc 53e7 863d 6477 a6be
00000080: 2ad1 84bd 07c7 fd3d 7179 df3c 314f 503e
00000090: c564 14bf 9e52 a6be 0e26 ed3e 272d 7b3e
000000a0: 2088 b33e 8289 dfbe fcca ecbd 3e40 b33e
000000b0: ca22 953e 3baa fe3d f6a4 853c 9430 a23d
000000c0: 3556 533d a89d fbbc 3867 35be 425a 14bd
000000d0: 9747 883d 7e3e 103d 05fe 06be 3be2 293d
000000e0: 5cb1 3dbe e2d9 f9bd c0fa 193e eb3e 213e
000000f0: 2c09 0a3e 23d8 e9be cc84 43be a7e4 bd3e
00000100: 6e0c 863e a42b fd3d b35c 78be 34f3 2bbe
00000110: 8a73 903e 383c 2b3e 6ef2 173e 914e 0cbd
00000120: 7d1a 6fbd 347f f0bc 4cad 9dbd e584 9ebc
00000130: a611 4d3e 38e7 6a3d 2b12 543d 736b fcbc
00000140: d066 73bd fdcb 28bc fc19 073e 1610 113d
00000150: b45a ae3d 57ac f73d decb 02bd 3dab b43d
00000160: 1872 9c3d 70e1 813d c856 3abd 56b6 4c3d
00000170: 103f db3d eef9 63bb a9e8 2a3e 4da4 a53d
00000180: e273 5ebd 2741 57bc c9b8 ff3d 4d08 3c3e
00000190: 6e19 703c a5dc 0e3d 52e7 b03d 5234 19be
000001a0: 5ab8 e6bd 0294 96bd 8c00 df3c 83ab 113d
000001b0: 065a 9f3c ab87 1dbe 1594 47bd 81a8 d0bd
000001c0: 7faf 9e3c 9f9d 223d ddb5 38be 63c9 8abd
000001d0: 6df2 4bbe f8eb 36be 3df7 233c 3eac 6a3c
000001e0: 8600 03be e1a7 34be 32a5 2ebd 3b91 babd
000001f0: 424b 753d d320 693e a58f 8e3e 5017 673e
00000200: a281 df3d b9ef 3dbd 2c5b 693d e595 843e
00000210: 8826 2a3e 515d f73d ed8b 19bb 89cf 54bd
00000220: b463 063e ee3f 3d3a 1410 e23d 3202 043e
00000230: 63ea c93d 87e4 c03d 99a0 ca3d 1dce 753d
00000240: bbdd 8dbc a8b3 943d c8fe c53d 4211 73bc
00000250: 29c2 403e c796 093d 65c9 873d 025e 90be
00000260: 60bc 8fbe cede 90be 6db9 2dbe f6e0 b3be
00000270: 6456 e7be 09b3 8fbe e578 5abe f833 f9bd
00000280: e8be f5bd 0ca7 473d 8ad5 233d e0e3 793e
00000290: 269f f63d 65dd ac3d f8e9 b83e 6dfb a33e
000002a0: 97f0 983e b2c2 553e ec86 833e 4813 5a3e
000002b0: 0412 813e 01c0 4f3e bff5 453e a963 a13d
000002c0: efd1 8e3d e57e 46be 13fa ebbc 58da edbd
000002d0: 27e6 e7bd ddc9 adbe 23fa 27be f636 cdbc
000002e0: d0a1 8a3c b42b 1dbe de1b c33d cbfd 4f3d
000002f0: 8945 1b3e f6a4 163e 3910 87bd 0d8d ab3d
00000300: 52d8 973e 3981 083e 3f49 a5bd fa13 8d3d
00000310: 7eb0 a83d 1b7e 85bd bc44 08be 35c3 3bbd
00000320: 9b7c 963e d71c c93d 0582 d6bc ab8c 0ebe
00000330: bedb 263e a1b4 15be 1771 adbe 48c4 5dbe
00000340: 4172 2dbe e331 d9bc 4a37 d2bd e863 803c
00000350: 2622 303e e434 203e 8546 d13d c68f e33d
00000360: 975c 5d3e 14e1 793e 483f 3f3d 3bf9 7ebc
00000370: 79d0 d0bc 0c0d 2b3d 97ad 14bd b7f9 10bd
00000380: 7e4a 23be 8da3 adbd f4c4 24bc daf3 0cbd
00000390: 00da c5bd 8487 3dbe 2997 02be c28c acbd
000003a0: 220b b1bd deb0 cabd 7896 28be d9c9 32be
000003b0: 9273 19be 7b65 46be a49c 8fbe 6881 15be
000003c0: 25c5 0abe b90a 5dbe 7d58 6dbe 480e 86be
000003d0: ec73 8ebe f462 19be 0daa 1abe ae2a 34be
000003e0: 9bd9 27be 49c3 1abe 2db2 26be f632 30be
000003f0: 342f 87be 1c3b 92bd 68ec 24be fe60 753c
0.113326 0.18193068 0.020597685 -0.08856712 0.11202822 0.20412181 -0.22834097 -0.2646033
0.21475117 0.1535459 0.1846056 -0.60373175 -0.3323031 0.3042155 0.16801721 0.11436899
-0.5348281 -0.22079138 0.24922054 0.18824016 0.038079027 -0.22931656 -0.034226984 -0.12715262
-0.16855268 -0.11518844 -0.14634061 -0.11313628 -0.09873544 -0.027191991 0.0658709 -0.32512963
-0.064852074 0.12391477 0.027279587 0.20342709 -0.5796626 -0.32484907 0.46318096 0.24528943
0.35064793 -0.43659598 -0.11562154 0.3500995 0.29128104 0.12434813 0.016314011 0.07919422
0.051595885 -0.030714825 -0.17715156 -0.03621889 0.0665428 0.035215847 -0.13182838 0.041475516
-0.18524688 -0.12199761 0.1503706 0.15746658 0.13480061 -0.45672712 -0.19093627 0.3708851
0.26181358 0.123618394 -0.24254112 -0.16791993 0.2821315 0.1672219 0.14838573 -0.034254614
-0.05837487 -0.02935753 -0.076990694 -0.019350478 0.20026264 0.057349414 0.05177514 -0.030812955
-0.05942422 -0.010302541 0.13193506 0.03541573 0.08513394 0.12093418 -0.031932704 0.088217236
0.07638949 0.06341827 -0.045492917 0.049978577 0.107053876 -0.003478642 0.16690315 0.080879785
-0.054309733 -0.013138092 0.12486417 0.18362541 0.0146545 0.03487839 0.08637871 -0.14961365
-0.11265631 -0.07352449 0.02722194 0.035563957 0.019452106 -0.15383784 -0.048725206 -0.101883896
0.019370792 0.0397011 -0.18038125 -0.06776693 -0.19916697 -0.17863452 0.010007677 0.014323292
-0.12793168 -0.17642166 -0.04263801 -0.09109732 0.059886225 0.22766428 0.27843967 0.22567487
0.10913397 -0.046371195 0.056971714 0.2589561 0.16616261 0.120783456 -0.002342935 -0.051955733
0.13123971 0.0007219304 0.11038223 0.12891462 0.09859159 0.09418588 0.09893913 0.060011018
-0.017317643 0.07260829 0.09667736 -0.014835658 0.18824066 0.033591058 0.0663021 -0.28196722
-0.28073406 -0.28294986 -0.16965266 -0.3513257 -0.45183098 -0.2806628 -0.2133518 -0.121681154
-0.11999303 0.048743293 0.03999857 0.24403334 0.12042074 0.08440665 0.36116004 0.3202776
0.29871055 0.20875052 0.25688875 0.21296418 0.25209057 0.20288087 0.19332026 0.07880337
0.069736354 -0.19384344 -0.028805768 -0.116139114 -0.11323195 -0.33943072 -0.16404013 -0.025050621
0.016922861 -0.15348703 0.095267996 0.050779145 0.15163244 0.14711365 -0.06594891 0.08376513
0.29657227 0.13330545 -0.08070611 0.06888576 0.08236788 -0.06518193 -0.1330747 -0.04584046
0.2939194 0.09819954 -0.026185045 -0.13920848 0.16294762 -0.14619686 -0.33875343 -0.21656907
-0.16938116 -0.026513046 -0.10264452 0.015672639 0.17200527 0.15645176 0.10218529 0.11111407
0.21617351 0.24402267 0.04669121 -0.015562351 -0.025490033 0.04176049 -0.03629836 -0.035394397
-0.15946385 -0.084784605 -0.010056723 -0.034412242 -0.09660721 -0.18508726 -0.12752976 -0.08425285
-0.086447015 -0.09897016 -0.1646365 -0.17459811 -0.14985493 -0.19374649 -0.28049195 -0.14600146
-0.13551767 -0.21586122 -0.23178287 -0.2618277 -0.27822816 -0.14979154 -0.15103932 -0.17594406
-0.16391604 -0.15113558 -0.16278906 -0.1720694 -0.264032 -0.071401805 -0.16105807 0.014976738

conv1.bias f4 [6]
00000000: 7b42 24be d720 0e3e b163 64be 1fc8 763e
00000010: 9cff 02bf b6e0 17be
-0.16040985 0.13879715 -0.22303654 0.24099778 -0.5117128 -0.14831814

conv2.weight f4 [16, 6, 5, 5]
00000000: 5160 6dbe 4350 f2bd cf79 773d 5a5a ae3d
00000010: 56af 723d ef2a c3bd de4b 83be 180d 44be
00000020: 9d93 a8bd 1710 323d d228 2fbd 9d1c f6bd
00000030: 9305 56be c56a 5fbe 1ba5 b6bd f9c0 3dbe
00000040: 2c5c f7bd d4a9 10be 1cc4 ebbd 5558 35be
00000050: 58f9 44be 8491 02be 8d17 f6bd c6a8 23be
00000060: 587a 0abd f0c2 fbbc ed84 f3bd bd5c f7bd
00000070: 8eab 0dbe f505 23be f0f9 183e 460f 6039
00000080: 5f3e 11be a4c6 33bd c332 a5bd 4bf3 e63d
00000090: 8766 0d3e 6d74 96bc eb80 dfbd 01b4 a6bd
000000a0: 6a58 443d eadc 9b3d afb4 fe3d 6e28 d33d
000000b0: cf48 8f3d 6e6e f73d b9f0 cd3c 6a01 033e
000000c0: ba1b f53d c3d1 253e a867 a43b 5dc4 313d
000000d0: 90f8 20bd 8b6e 8dbd 471e 90bd 1c8f 34be
000000e0: bbe2 723d 2197 053e 044a ccb6 6800 ecbb
000000f0: 3e85 46be 8b31 ecbd 07d6 02bc 36b8 b33d
00000100: ca63 5b3e d281 2cbd c49a 84bd 0e2d edbd
00000110: dab8 e33d 8669 ae3d a8a9 a23c 4a19 80bc
00000120: c3f7 bc3d 5c5b d03d 5fb5 d03d ed65 6bbd
00000130: e810 35bd 929a 2abe 4c6d 88bd af20 c2bd
00000140: f1a3 5a3d ce04 0ebc ef6e a0bd 95d1 0abe
00000150: 2b58 4fbc 03f3 1f3d 4f00 633d 06cd 2fbb
00000160: b556 0b3d 83c8 0fbc a77f 5abd d822 db3c
00000170: 499d 2dbd 2992 e83d f1f6 fb3c 52ef c73c
00000180: 22ac 2ebd b6c6 9d3d 7606 1a3e 305c 413e
00000190: 07fd 47be ff9a 7abd 038e c03d b06d 003d
000001a0: 692b 203d 00df 36be f7d7 0bbe 0879 77bc
000001b0: 824a 303d 6431 213e a98b 11be d69b 0fbd
000001c0: ad11 8bbb 389c 813d f8a3 2aba 458d a1bd
000001d0: 7299 37bd 6d1b 9cbc 164f 98bd f516 49bc
000001e0: be47 21bc ea87 ddbd 4651 2abd 4b36 9dbd
000001f0: 09f2 3c3d 1c10 1a3e d34c 053e 8717 423c
00000200: c87a 86bd 9bfe 8d3d 820c 9d3c 801a b53d
00000210: 8f16 2d3e cc05 033e d7ed 05bd 5351 43be
00000220: 6935 d9bd c9df 0a3e d580 313e c255 b33c
00000230: bef3 97bc 00cd 83bb 5bb0 aebc 34b6 293d
00000240: 0419 013e e2a3 a8bd 9992 d9bd 631e e4bd
00000250: 8a81 68bc c387 da3c d7c3 6d3e c345 2fbd
00000260: fb54 473d 67ef ee3c 3e44 26be 1129 b7bb
00000270: 24c5 18be 1bea 123e 574f 383d bd03 8d3c
00000280: b178 0ebe 7c54 0e3e 1d56 cc3d 9e22 2cbe
00000290: ddde c03a 7a22 343c 1e9a 283e 6307 923d
000002a0: b748 05bd a7ca 78bd ee49 263e 03b3 0b3c
000002b0: dc1e ef3b 9a31 753d 1365 3fbc df26 9fbd
000002c0: 73c0 bfbc b1db e13b d71d 06bd c2fd 03bd
000002d0: 4b32 a0bd 053b 7c3b bdfd 8cbd d664 12bd
000002e0: 3a46 02be 459e 303c cc68 a1bd 47bf 33ba
000002f0: 2c12 4a3c 3afe efbd e79a 94bc 135a 8ebd
00000300: 5ad0 2bbd 4549 8cbd ddb8 31be 11b9 dc3d
00000310: b5e2 a53c 252f 8fbd 5000 6abd 1b51 63bd
00000320: d7f9 f93d de2e b8bd d432 c7bd b1f3 bd3c
00000330: cd6c 533e 5c91 d8bc 9bdf d7bd 6b26 d13d
00000340: 349e 133e 73ce c03c 1953 723d e9ec 093e
00000350: 07b3 e93d 2907 bdbd 3948 dcbc 3c5c 223b
00000360: 4b61 963d 01f7 a7b9 8a80 09be 1107 113d
00000370: e39f a6bc 9e75 c2bc 75f0 913d f456 e8bc
00000380: ac82 9c3d 81ac ecbd 73bd 28be 592f 07be
00000390: cb6f e4bd a3a3 13be c3c8 c7bd 1cc9 85be
000003a0: 1be2 4fbe 7e49 34be 3f56 f3bc 3a7f 61be
000003b0: e063 4abe 9ac1 2fbe e153 acbd 4dc9 55bd
000003c0: 7ea2 c7bc 715b 52be ac8f 45be 17f5 22be
000003d0: 236f 47be 572c e3bd 4e5f 40be 1c45 3dbe
000003e0: 1262 9bbe 3a58 90be d738 d0bd 67a0 bdbd
000003f0: d1fa f53d ab2a 053e f2aa 69bd df02 a3bd
-0.23181273 -0.11831715 0.0604189 0.08513327 0.059249245 -0.09529673 -0.2564382 -0.1914562
-0.0823128 0.043472376 -0.04276354 -0.12017176 -0.20900564 -0.21818073 -0.0891821 -0.18530644
-0.12078127 -0.14127284 -0.11512014 -0.17709477 -0.19235742 -0.12750822 -0.12016211 -0.1598235
-0.033808082 -0.030732602 -0.11890588 -0.12078235 -0.13834974 -0.15920241 0.14939094 0.00021367994
-0.14183949 -0.04389061 -0.08066323 0.11276873 0.13808642 -0.018366063 -0.10913261 -0.08139802
0.04793588 0.076104954 0.124368064 0.10310446 0.06996309 0.1208161 0.0251392 0.12793508
0.11968179 0.16193299 0.0050172396 0.043400157 -0.039299548 -0.0690585 -0.07037025 -0.17632717
0.05929826 0.13045932 -6.0882903e-06 -0.007202197 -0.19386765 -0.11532887 -0.007985598 0.0877537
0.21424785 -0.042115994 -0.06474832 -0.11580859 0.11119242 0.08516221 0.019856289 -0.015637059
0.09226944 0.101736754 0.10190844 -0.05747025 -0.044205576 -0.16660526 -0.06661472 -0.0947889
0.053379003 -0.008668138 -0.07833659 -0.13556512 -0.012655298 0.039050113 0.055420216 -0.0026825084
0.034018237 -0.008775833 -0.053344395 0.026750013 -0.042386327 0.11356003 0.0307574 0.024406109
-0.042644627 0.07703917 0.15041527 0.18882823 -0.19530116 -0.061182972 0.094020866 0.031354606
0.0391039 -0.17858505 -0.13656603 -0.01510454 0.043039806 0.15741497 -0.14213432 -0.035060726
-0.0042440505 0.063286245 -0.00065094186 -0.07888273 -0.04482407 -0.019056046 -0.074369594 -0.01227354
-0.009843765 -0.10816939 -0.041581415 -0.07676371 0.04612926 0.15045208 0.13017587 0.01184643
-0.065663874 0.06933328 0.019171003 0.08842945 0.16903137 0.1279518 -0.032697525 -0.19073991
-0.1060589 0.1356193 0.17334302 0.021891478 -0.018548843 -0.0040222406 -0.021324327 0.041433528
0.12607199 -0.08234383 -0.106236644 -0.11138608 -0.014191041 0.026676064 0.23219238 -0.04279114
0.048665028 0.02916689 -0.1623697 -0.0055896123 -0.14918953 0.14347117 0.04499754 0.017213697
-0.13913228 0.13899416 0.09977362 -0.1681008 0.0014714856 0.010994548 0.16465041 0.07130315
-0.03254005 -0.06074014 0.1623914 0.008526566 0.00729738 0.059861757 -0.011681813 -0.07771086
-0.023407197 0.0068926443 -0.0327433 -0.032224424 -0.078220926 0.0038487327 -0.06884334 -0.035740696
-0.12722102 0.010779922 -0.078813165 -0.00068568107 0.012333434 -0.11718412 -0.01814027 -0.06950774
-0.041946746 -0.068499126 -0.17355676 0.10777486 0.020249704 -0.06991414 -0.057129204 -0.05549727
0.12205856 -0.08993314 -0.097264916 0.02318749 0.20646973 -0.0264365 -0.10540696 0.10212406
0.14415818 0.023535943 0.05916128 0.1346928 0.114111 -0.09229881 -0.026889907 0.0024774214
0.07342776 -0.00032036754 -0.1342794 0.03540713 -0.020339912 -0.023737725 0.07125942 -0.028361775
0.07642111 -0.1155634 -0.16478519 -0.13201655 -0.11154135 -0.14417891 -0.09755089 -0.26129997
-0.20301096 -0.1760616 -0.029704211 -0.2202119 -0.19764662 -0.17163697 -0.08414436 -0.05219393
-0.024369475 -0.20542695 -0.19293088 -0.15913807 -0.19475989 -0.110924415 -0.18786356 -0.18483394
-0.3034826 -0.28192312 -0.10167091 -0.0925911 0.1201073 0.13004558 -0.05704779 -0.07959532

conv2.bias f4 [16]
00000000: f958 073e 703b 633f 20bb f1bd 2e93 cd3e
00000010: 7a7d 283e 9287 8ebe 44eb 25bc 3287 33bf
00000020: 617e 17bc de45 7cbe 1355 8abe 2d81 1fbe
00000030: a5b2 14be 616c 103e ccae 183f 7854 23bf
0.13217534 0.8876257 -0.118032694 0.40151352 0.16454116 -0.27837807 -0.0101268925 -0.70128167
-0.00924644 -0.24636027 -0.2701803 -0.1557662 -0.14521272 0.14103843 0.5964172 -0.63800764

fc1.weight f4 [120, 400]
00000000: 6be3 c9bd b56e 803d 128d 58bc da9b 003d
00000010: 2e9b 103e be2d f9bc dd04 303d d149 a7bc
00000020: b464 51bd 508c 993d 9894 08be 9919 11bd
00000030: 27c6 8c3d 7e19 3ebc e6d3 d93d 3116 53bd
00000040: e4f6 95bc 695c d9bc 6e7f 98bd 48b8 983d
00000050: be30 1ebe 4a16 3dbd 53b5 74bd 4b49 22bd
00000060: 2fed 3f3c 3c73 143e 56ec ca3c 3bf4 673d
00000070: 0aba 8c3d 0e00 36bd 209f 133e 9165 e6bb
00000080: 2b33 363d b22a f23c 7162 093d bccd 143e
00000090: 7aa7 75bd 9b7d 363c 0945 703d 7a8e 533d
000000a0: ef99 783d b79a c93c ed50 d5bc b8a4 42bc
000000b0: 596b ec3d d3f4 a43d 3def a23c 0dfd afbb
000000c0: f1bc d23c e91b a53d 05b6 893c 865b 7dbd
000000d0: e20a 823d e12c cc3d f91e 123d 783c c8bc
000000e0: 520b 8ebc 3ab6 a13d 32af ce3d c5bf f33c
000000f0: d964 57bd a82a 0fbc c59f e0bb 37ba 96bc
00000100: 7852 39bc 1f05 f0bd 772c c9bd 8626 c8bd
00000110: ece3 75bc bd98 ca3c d449 adbd c28e 45bd
00000120: 58f6 19bd 3545 d7bc b983 3a3c 086a 9abd
00000130: 60b7 04bd f6bc 91bd a509 1abd 74fb d43c
00000140: 999e cebd b649 d9bc 0d72 4ebc 2dc0 11bd
00000150: 502a 9cbc fc12 c3bc 9684 6e3d fa1b 043d
00000160: b244 89bd 7696 c4bd 1e0c 43bd c203 353d
00000170: 82e8 113b 7006 b8bb 9f93 b0bd 3828 b1bd
00000180: f424 c1bd fdd9 f7bc 1b3d 12bd 843d e33c
00000190: d246 a03d 5ad5 dd3d e665 e83d 074b e43d
000001a0: 84e9 eb3d 3adc 4c3d 4aaa 4cbd a2c9 0d3d
000001b0: a2aa 213d b8dd 423d 57cf 5ebc 0f21 1fbe
000001c0: 56ff f7bb 911d cabc 0150 b63d 3de2 13bc
000001d0: 9654 81bd 105c 01bd edd1 8ebc 4b32 7e3d
000001e0: 92c5 723b f548 1cbd 0c5e 153d ce5c 0dbd
000001f0: 59e0 bb3d d0f7 59bc 4ad0 f23d 67ca 083e
00000200: 5932 32bd 6f52 59bd a4d8 c13c 1ceb f63d
00000210: 0111 e9bc 7ae1 dbbc 8595 c6bd 00d1 a63c
00000220: d44c 813d 4f7e 553d 62f5 ab3c ba19 12bd
00000230: 462f 84bc 94c4 18bd 4534 17bd bf22 95bd
00000240: c318 73bd 7c0c a7bc a32a dcbc 77fa b93a
00000250: 35bc 2cbc ac66 80bd 0248 8c3c e46d 393d
00000260: 8d69 493d 90cf d33d a8b3 aa3d d068 0f3c
00000270: 3e7f abbc ec73 3a3d 5ff7 0bbd 968e 95bc
00000280: 0f75 debd 9728 6dbc 3404 4d39 d1ff 57bd
00000290: e26f 8b3c 49ea 3abe 2c50 d4bc 2f45 b23c
000002a0: f57d 4abd 8162 4bbd 3b51 9abd e570 64bd
000002b0: adc9 61bc 9964 5bbd 957c d4bd 8573 c3bc
000002c0: 2245 97bd 36d7 1b3c fbfe 37bd 19ee 51bd
000002d0: 91b6 46bd f032 483d 604a 89bc b952 86bc
000002e0: 2312 58bd fa04 1fbd 1d26 00bc 8f24 633d
000002f0: 0e80 983d b95f bf3d fb66 7dbd e16e a4bd
00000300: 62cd 15bd 7b95 58bd 5366 06bc e402 fd3c
00000310: 37dc 563c 67a9 02bd f2b5 883d 6b7c 86bc
00000320: 27fb 87bb 63d3 4d3d cf2a 18bd 25ac d73c
00000330: 0ada e23c f23c e5bc 38ba dc3c 0ba9 ae3c
00000340: 68c3 5d3c 46a5 2a3d f23f 2d3d cce5 313d
00000350: c8a3 423d b358 8e3a a152 a53c 69e7 29bd
00000360: 33ff b4bc 8ddc b9bb b3b1 f83c 185b a23c
00000370: c1f0 d4bc 6dec 263d 66f3 cb3c a568 123d
00000380: d179 0bbd 1e9b 33bd b5d4 373d e813 58bc
00000390: 3c28 8b3d 287a 0b3e 1824 443d 7651 e63c
000003a0: 74ea 453d 092d 953d 6523 1d3d 540c 843d
000003b0: cecf 85ba 4ae2 a33c c545 ce3c cc70 a13d
000003c0: 5bfd cc3d 0847 0f3c 6a88 803c 6d28 a13d
000003d0: 2148 863d ca19 dc3d fc23 d93c 404c 293d
000003e0: 389f aa3d 0d27 ff3c 043d 153e adab 163e
000003f0: d983 a83d 3543 ad3d 9aa5 853d 0a43 873d
-0.0985783 0.06271116 -0.0132172275 0.03139863 0.14121696 -0.03041732 0.042973388 -0.02042094
-0.05112143 0.074974656 -0.13337934 -0.035424802 0.06873732 -0.0116027575 0.106361195 -0.051534835
-0.018306203 -0.026533322 -0.0744618 0.07457024 -0.15448281 -0.046163835 -0.059743237 -0.03962068
0.011714264 0.14497083 0.024770897 0.0566294 0.06871422 -0.044433646 0.1441617 -0.0070311506
0.04448239 0.029561374 0.033541147 0.14531606 -0.05997417 0.011138345 0.058659587 0.051649548
0.060693678 0.024609907 -0.026039565 -0.011880092 0.115439124 0.08054509 0.019889468 -0.005370742
0.02572486 0.08061964 0.016810426 -0.06185486 0.06349732 0.099694975 0.03567407 -0.024442896
-0.017339382 0.07896085 0.100920096 0.029754529 -0.05258641 -0.008738197 -0.0068549835 -0.018399341
-0.011311166 -0.11719727 -0.09822934 -0.09772973 -0.015007954 0.024731034 -0.08461347 -0.048231848
-0.037588447 -0.026278118 0.011383944 -0.07539755 -0.032401443 -0.071161196 -0.037606854 0.025998808
-0.10088844 -0.026524406 -0.012600434 -0.035583664 -0.019063145 -0.023812763 0.058231913 0.032253243
-0.06702556 -0.09599011 -0.047618978 0.044193037 0.002226383 -0.005616002 -0.086219065 -0.08650249
-0.094308764 -0.030255312 -0.035702806 0.027739294 0.07826008 0.10831709 0.113475606 0.11147123
0.11519149 0.050014712 -0.049967088 0.03461612 0.03946937 0.04757473 -0.013599238 -0.15539955
-0.00756828 -0.024672301 0.08901978 -0.009026107 -0.063149616 -0.03158194 -0.017434085 0.06205968
0.003704403 -0.038155515 0.036466643 -0.034512334 0.0917365 -0.013303712 0.11856134 0.1335846
-0.043505047 -0.05305713 0.023662873 0.12056562 -0.02845049 -0.026840914 -0.09696487 0.02036333
0.06313482 0.05212241 0.020991031 -0.035669066 -0.016135823 -0.037296847 -0.036915082 -0.07282018
-0.059349786 -0.020391695 -0.0268758 0.0014189024 -0.010542919 -0.06269583 0.01712418 0.045270815
0.049172927 0.10342324 0.08335048 0.008753017 -0.020934697 0.045520708 -0.03417146 -0.018256467
-0.10862171 -0.014475009 0.0001955189 -0.0527342 0.017021123 -0.18253435 -0.025917135 0.021761505
-0.04943653 -0.049654488 -0.07535025 -0.055771727 -0.013780993 -0.053562734 -0.10375325 -0.023858795
-0.07386233 0.0095117595 -0.044920903 -0.05125246 -0.048513953 0.048876703 -0.016759098 -0.016396867
-0.05275167 -0.038823105 -0.007821587 0.055454787 0.074462995 0.093444295 -0.061865788 -0.08028961
-0.03657282 -0.05287693 -0.008203107 0.030885167 0.013114027 -0.031899836 0.06675328 -0.016416749
-0.0041498127 0.050250422 -0.0371502 0.026327202 0.02769186 -0.027983163 0.026944265 0.02132084
0.013535358 0.041661523 0.04229731 0.043432042 0.047519475 0.0010860175 0.020181002 -0.041480456
-0.022094345 -0.0056720437 0.030358171 0.019818828 -0.025993707 0.040752817 0.024896335 0.035744328
-0.03405172 -0.043849103 0.044880588 -0.01318834 0.067947835 0.13620818 0.047885984 0.028115015
0.048319295 0.072839804 0.038363833 0.06447664 -0.0010209025 0.020005364 0.025179753 0.078828424
0.10009261 0.0087449625 0.015690047 0.07869039 0.06556726 0.107471064 0.026506416 0.041332483
0.0833115 0.03114655 0.14574057 0.14713927 0.08228273 0.08460084 0.065257266 0.066045836

fc1.bias f4 [120]
00000000: ad6f 13bb 6f69 69bd 8124 06bd 1230 54bd
00000010: 8487 5b3e 52a1 06bd b6a7 5b3d 7773 ff3c
00000020: 60c9 9cbc 348f 10bd 73e4 ba3c 063e 293c
00000030: fedd 203e d236 2dbb 435b b5bd e7cc d1bd
00000040: 3cf4 c83d 6717 a53d 4ce8 aa3c 42a2 6cbc
00000050: bd5e 33bd f64a 25bd ab46 20bd 0356 9c3d
00000060: 318f e2bb b0b6 333d 2d59 54bc 821b 53bd
00000070: 63b9 cfbc 516f 2d3c 344f 3abd d214 393e
00000080: 05ff 1dbe 5225 ccbd c806 d73b b6bd 953d
00000090: 4610 023e 0744 e03b 9578 03bc 6328 bdbb
000000a0: b17f bb3c 25e7 7abc 051d 3a3c 9cb9 31bb
000000b0: 7944 263d 23bd cabc 9313 03bc f07d adbd
000000c0: 8c30 fabc d0a9 28bc 7fd8 b4ba f6d0 0bbc
000000d0: 1a74 9c3b 0bf5 b73c d1dc d3bd 365c 083d
000000e0: a820 ae3d d059 ecbc 0b3d 93bc f56a 3fbd
000000f0: 5089 b8bd 515a f63b 0977 e0bd a8d4 983d
00000100: 2466 9e3d 6b6c 413e 444a 2abe 1dac b4bb
00000110: 0f6a b83d 48db 483d 6810 0cbe 6ace f93c
00000120: 8552 c13d e1d4 e7bd 30ba 0f3d 8278 f739
00000130: cabb 513d a3b7 7cbd 1596 f4bc ac69 643e
00000140: 8074 cc3d 2908 923d 96e3 e73c 89fd 4d3b
00000150: 7b45 983c 9769 69bd ea89 103d 8658 ff3c
00000160: 54aa d9bc 9e65 443e 6966 2dbd d5a8 29bc
00000170: 7c81 6abd 4b58 6a3d fe58 3cbe 5448 8d3d
00000180: fee9 473e 88be 2bbd 443c b9bd af5e e83c
00000190: 5327 ac3c 26b9 513e 8b51 01bd d0da 3cbd
000001a0: 0bf8 eb3b cf72 39bd da04 333e 2ddd a93d
000001b0: dbea 513e 6bb7 47bd 7693 c9bc 09e5 003e
000001c0: 4971 8e39 1937 9e3d 5a28 cd3d 4914 84bc
000001d0: 4ddf cf3d d329 b0bc 6c96 4abd a981 44bc
-0.0022496984 -0.056985315 -0.032749657 -0.051803656 0.21438414 -0.03286869 0.05362674 0.031182988
-0.019138992 -0.03529282 0.022814011 0.010329729 0.15709683 -0.002643038 -0.088552974 -0.1024416
0.09812209 0.08061104 0.02086272 -0.014442982 -0.04379152 -0.04035469 -0.039129894 0.07633593
-0.0069140424 0.043875396 -0.012960714 -0.051539905 -0.025356954 0.010585622 -0.04548569 0.18074349
-0.15429313 -0.09968056 0.0065620877 0.07311575 0.1270152 0.006844047 -0.008024354 -0.0057726367
0.022888036 -0.015313898 0.011359458 -0.0027118688 0.040592644 -0.02474839 -0.008000272 -0.08471286
-0.030540727 -0.010294393 -0.0013797431 -0.008533707 0.0047745826 0.022455713 -0.10344852 0.033291064
0.085023224 -0.02885142 -0.017973443 -0.04673286 -0.09010565 0.007518091 -0.10960204 0.07462436
0.077343255 0.18889014 -0.16629893 -0.0055136816 0.09004604 0.049037248 -0.13678133 0.030493934
0.094395675 -0.113199 0.03508967 0.00047201297 0.05120448 -0.061698567 -0.029856721 0.22305936
0.09983158 0.07130463 0.028306764 0.0031431636 0.018587818 -0.056985464 0.035287775 0.031170141
-0.026570477 0.19179389 -0.042333994 -0.010355194 -0.057252392 0.05721311 -0.18393323 0.06898561
0.19522855 -0.04192975 -0.09044698 0.028365461 0.021014845 0.20480785 -0.031571906 -0.046107113
0.0072012 -0.045275506 0.1748232 0.08294139 0.20499747 -0.048758905 -0.024606448 0.1258737
0.00027168755 0.07725353 0.10017462 -0.016122954 0.10150013 -0.021504318 -0.04945986 -0.011993804

fc2.weight f4 [84, 120]
00000000: c271 94bd 6732 5abd 7a4e 8abd d3db b23c
00000010: 4e44 0f3d 2f43 5c3d 5164 c53d 0b77 afbd
00000020: 8208 9e3d 09bd cb3d 999b afbc ec83 a03c
00000030: 6e27 73bc 8d2f f33b fa94 2bbe ccdd b83c
00000040: 1bda 7e3d b67e 943d 9c4c 93bc 8331 f13c
00000050: 98ae 6bbd 5824 0dbe af91 c83a ccaf 26be
00000060: c75d d3bd ddf8 34bc 9002 253d 3688 a4bd
00000070: 5f42 9a3d c2bd 7abd 696e 953d a387 1ebe
00000080: cc47 07be 7612 453d a6d6 273c 057c 823d
00000090: af16 65bd d25e 57bd 5605 fe3d 04fe 95bd
000000a0: 13a0 54bd 8f7b 9fbd bf40 9fbd 095d 96bc
000000b0: 3afb 9e3d 1744 8cbd d0f8 90bd 59a5 2dbd
000000c0: 4746 0b3d 1388 c8bb 49ae b83d 0978 5d3d
000000d0: 70a3 963c 281c 50bd 609b e23d 7f8d 10bd
000000e0: 3fa7 b239 b8b3 823d a5ea b13c 1a29 53bd
000000f0: 1800 9fbd d852 ac3d 4b91 a5bc 6fde 86bd
00000100: eedb 2cbd 41ef 3a3d 50dc 24bc 7e46 9bbc
00000110: ff50 a23b 7fcf c9bd 6c2e c3bc a2f4 c0bd
00000120: 6ec4 d43d bf9f 843d 7261 45bd 5a91 e23c
00000130: 8cb0 d53d 4a01 00be aa3e ef3c 6808 373d
00000140: fc46 a9bc 5550 24bd 3eb5 95bd 9057 1cbd
00000150: 41a7 1a3d d673 2fbd d4a2 2ebd fea7 2c3e
00000160: 19c4 913d ae88 85bd 2481 a4bd 88e7 463d
00000170: cc61 9d3c 9818 843d a97f fb3c 8042 163d
00000180: 51f5 af3c 1ebe febc dc01 50bd b0cd 1bbc
00000190: 2e76 b3bd 3a02 2dbd 74b9 5c3d a43a e6bc
000001a0: b4b6 9e3b caea 2a3d 927e bdbd e293 083d
000001b0: ce58 223d f30f f83c 703f dfbd d146 133c
000001c0: bca0 923d 8857 203d 2d92 293e 2eb3 afbc
000001d0: e85b 19bc 3131 a43d 7664 cabc 6707 693d
000001e0: ffcf 3f3c 0c64 383d 8aaa c2bd beaa 0abd
000001f0: 26a6 083e 7a2c 733d fe13 473d e899 17bd
00000200: c84f c1bc fce7 443c da69 bfbc f94c 8f3d
00000210: 296a 063e 434c 213d ee53 7dbd 2097 82bd
00000220: 44d8 043e 188a fb3c aa65 903d 12c3 a6bd
00000230: 7baa 1b3d f85e cbbd 51c3 94bc e638 223d
00000240: 7431 b9bd 2fa8 84bd 1e26 c53c c3a3 203d
00000250: 33c4 25bd 5541 bb3c 92ae 9f3c e8f0 813d
00000260: c492 a1bc 58a9 08be efc6 38bd 1282 c5bd
00000270: 08f9 343d 8918 b6bd 142b 0f3d 3712 55bd
00000280: 0aa0 99bd 47ea 0b3d 558b 153d 1f34 373d
00000290: f0de 003b a359 9a3c 9c28 ffbc 83dc c0bc
000002a0: 0ea8 ee3c 34e1 123c 400f 6abd 8905 823d
000002b0: 5bdf 113d 81df 0abd 84c0 0a3d f5d1 38bd
000002c0: 1897 2abd 0996 b8bd efe2 9cbd 5732 5abd
000002d0: 491b 553d 77c1 373b df2e 0e3d 406c 3bbb
000002e0: 6530 31bd f01a 863a 78ec b1bd de8d 933d
000002f0: 612a 8bbd 90a9 073b ff91 e7bd 57b2 dc3d
00000300: c17b 423d e6e2 5fbd cc74 473d d1aa 55bd
00000310: 5c43 84bd 9a87 423d 48e7 22bc b930 2d3d
00000320: 5849 40bc 1eb4 b2bc f45e 353c e69a 1b3d
00000330: b5a9 e0bd f66b 89bd 5be6 9e3d 02ff 183d
00000340: 38a1 24bd 1ade b5bd c41d 18bd bfde 1e3d
00000350: ca8e 253c 2c14 a13d fee6 83bd b159 133c
00000360: e90a 993d 4555 d7bd ff77 323d ea97 813d
00000370: 8e94 98bd 6fd1 10b8 4270 cb3c 388c c73d
00000380: 1ef6 3dbc e7fd 80bd 0308 8dbd 9d0d 08bd
00000390: 533a d2bb 1b27 fbbc 6705 8a3c fa1d 1cbd
000003a0: 199b a73d 2221 ba3d da1a f53c c9a5 56bd
000003b0: dd77 bcbd 5f5f bcbd e2d9 193b 4131 8ebd
000003c0: 7282 113d 0b62 633d 87cb 86bd 628a c93b
000003d0: fff3 f1bd f995 88bd f01f 80bd 09d3 dc3c
000003e0: ebc1 c8bd 0d0f 84bd f31a 62bc d685 90bd
000003f0: 6e23 b03d 4d16 bdbd 704e 173e bd8b d53d
-0.0724826 -0.053270724 -0.067532495 0.021833336 0.03497725 0.05377501 0.096382745 -0.085676275
0.077164665 0.09948165 -0.0214365 0.019594155 -0.014840944 0.00742144 -0.16756049 0.022566698
0.06221972 0.07250731 -0.017980866 0.029442554 -0.057539552 -0.13783395 0.0015302206 -0.16277999
-0.10320621 -0.011045662 0.040285647 -0.08033793 0.075321905 -0.061216123 0.0729645 -0.15481429
-0.13210982 0.04811331 0.010244047 0.06371311 -0.055929836 -0.052580662 0.124033615 -0.0732384
-0.05191047 -0.07787239 -0.07776021 -0.01835491 0.077627614 -0.068489246 -0.07078707 -0.042394016
0.03400257 -0.006119737 0.09017617 0.054069553 0.01838848 -0.050808102 0.11064792 -0.03529119
0.00034075414 0.06381935 0.021718333 -0.05155287 -0.0776369 0.08414239 -0.020210883 -0.065853946
-0.04220193 0.045638327 -0.010062292 -0.018954512 0.004953503 -0.0985403 -0.023825847 -0.0942166
0.103890285 0.06475782 -0.048188634 0.0276572 0.10434064 -0.12500492 0.029204685 0.04468575
-0.02066373 -0.040115673 -0.0730996 -0.038169444 0.037757162 -0.04283508 -0.042635754 0.16860959
0.07117481 -0.0652021 -0.08032444 0.04856065 0.019211672 0.064500034 0.030700522 0.036684513
0.02147928 -0.031096514 -0.050783023 -0.009509489 -0.08762775 -0.04223845 0.0538878 -0.028104134
0.0048435573 0.04172782 -0.09252657 0.033344157 0.039635472 0.030281043 -0.109007716 0.008989052
0.07159564 0.039145976 0.16559668 -0.021447744 -0.009360291 0.08017195 -0.024706107 0.056891825
0.011707305 0.045017287 -0.09505184 -0.03385424 0.1334463 0.059368588 0.04860305 -0.03701201
-0.023597613 0.0120182 -0.023365904 0.06997103 0.13126434 0.03937937 -0.06184762 -0.06376481
0.12973124 0.030705497 0.07050641 -0.081426755 0.03800438 -0.09930223 -0.01815954 0.039605044
-0.090426356 -0.06477391 0.024066027 0.039218675 -0.040470313 0.022858301 0.019492421 0.06344777
-0.019723304 -0.1334585 -0.045111593 -0.096439496 0.044182807 -0.088913985 0.034953192 -0.052019324
-0.07501228 0.03415897 0.03650983 0.04472744 0.001966413 0.01884157 -0.031147294 -0.023542648
0.02913287 0.008964825 -0.05714345 0.06348712 0.0356134 -0.033904556 0.033875003 -0.045122106
-0.041648 -0.09012992 -0.07660472 -0.053270664 0.052027974 0.0028038898 0.03471267 -0.0028598458
-0.043259043 0.0010231417 -0.08687681 0.072047934 -0.067951925 0.0020700432 -0.113071434 0.10776203
0.047481302 -0.054659747 0.04869537 -0.052164856 -0.0645816 0.0474926 -0.009942837 0.042282794
-0.0117362365 -0.021814402 0.011070002 0.03798952 -0.10969869 -0.06710045 0.077587806 0.03735257
-0.040192813 -0.08880253 -0.03713776 0.038786646 0.010104844 0.078651756 -0.06440543 0.008993552
0.07472784 -0.10514311 0.04357147 0.063278034 -0.074502096 -3.4527326e-05 0.024833802 0.097435415
-0.011594323 -0.06298428 -0.06886294 -0.033216108 -0.006415644 -0.030658295 0.01684828 -0.038114525
0.081838794 0.09088351 0.02992003 -0.0524042 -0.092025496 -0.09197878 0.0023475816 -0.06942988
0.035524793 0.055513423 -0.065817885 0.0061505297 -0.11814117 -0.0666923 -0.062560916 0.026956098
-0.09802612 -0.06448183 -0.0138003705 -0.07056777 0.08600508 -0.09232769 0.14776015 0.104270436

fc2.bias f4 [84]
00000000: e312 db3d f1e6 753d 3599 103d 78fa 353e
00000010: a605 343e 3ca0 abbd 8f53 1e3d 68e0 033e
00000020: be98 253d 2bbd 623c e789 243b 58a4 bb3e
00000030: 20cd 22bd 59e4 173e 6b25 1ebd 6555 063d
00000040: 294e 6b3e 0d23 d2bc 7d64 28be 97bb ae3c
00000050: 46c6 2f3d ceb0 00be 1b11 a73e f1e5 2f3d
00000060: f6bc 983e 30a9 c23e 0ed9 5dbd cb4e e93d
00000070: 341a 8dbd 9ea7 4a3d add2 14bd 5086 89be
00000080: a24a 863d 6f73 aabd 1d37 9ebd 98be 333d
00000090: 89e9 96bd 2903 e5bc 6152 9f3d 8581 0d3e
000000a0: 939f f03d de20 5e3c bbd4 3a3e 0ae6 cb3d
000000b0: feab 87bd ec69 4d3e 356b 81bd fab6 52bd
000000c0: 791c 4f3d 1dd7 db3d 3e1a 11be d216 373e
000000d0: 356a 5cbc e75f 4b3e f727 71bd b3e9 663e
000000e0: 1c86 0dbd abde 5d3e d355 1fbd 1eb4 6dbd
000000f0: 604e 9c3d 0a8b be3c 809d 6ebd a8bc 523e
00000100: f18c 5f3e 399f 8d3e 42f4 253e c214 44bd
00000110: ab5e bebc a89d c53e 5ac8 b6bd 180b 5e3e
00000120: 4c3e fbbc fbf1 90bd 2ee9 093e 0d34 9d3d
00000130: 382e 303e ae25 5b3e 3b86 f43d debd c13c
00000140: 140a 8e3d 6b67 b33c 518c c2bd 0ef2 a6bb
0.10696962 0.060034696 0.03530236 0.17771327 0.1758028 -0.08380172 0.038653906 0.12878573
0.04042887 0.0138390465 0.002510661 0.36648822 -0.039746404 0.14833201 -0.038609903 0.032796282
0.22979034 -0.02565148 -0.16444583 0.021329684 0.042913698 -0.12567446 0.32630238 0.0429439
0.29831666 0.38019705 -0.054162078 0.11391982 -0.068897635 0.04947626 -0.03633373 -0.26860285
0.06557204 -0.083227985 -0.07725356 0.043882936 -0.07368762 -0.027955608 0.077793844 0.13818939
0.11749186 0.013557641 0.18245213 0.09955986 -0.06624602 0.20059937 -0.06319276 -0.05144403
0.050564263 0.10734389 -0.14170167 0.17879799 -0.013453056 0.19860803 -0.058876004 0.22550087
-0.034551725 0.21666972 -0.038900208 -0.0580331 0.07632136 0.023259658 -0.058255672 0.20579779
0.21831109 0.2766054 0.16206458 -0.04787136 -0.0232385 0.38596845 -0.08924933 0.2168392
-0.030669354 -0.07077404 0.13467857 0.076759435 0.17205131 0.21401092 0.11939665 0.023650106
0.06935516 0.0218999 -0.094994195 -0.005094773

fc3.weight f4 [10, 84]
00000000: 1c2e 2fbe a4ea 8b3d ccf7 20bd c0e6 c1bd
00000010: ec22 293e 402b 75bc 9e95 3e3e 1fa5 903e
00000020: 04fa dabd 0d75 a43d 7572 763e 0bc1 613e
00000030: de52 bd3d c50b 7d3d f7f4 3d3d 9766 19be
00000040: 2bdb 57bb 1902 213e 9c20 043e 2d93 13bc
00000050: 83f6 b5bd 9fdf 1f3c 11a4 94be 0707 843d
00000060: 0bfa 043e 2189 b1bd 60a3 633c 671c adbd
00000070: e3f1 c33b 18ef fb3c 6f6f ef3b 5d5a 4e3d
00000080: eab0 b0bd 6ced 7b3e 09f4 a83c 7925 003e
00000090: dee5 44bd fe01 cfbd 721c 5bbe 3fa0 84bd
000000a0: 4cc8 18be b837 1c3e 817b b23d 1022 e8bd
000000b0: 5e55 67bd 64ee 8abd a310 103d f22c 61bd
000000c0: 4181 48bd d2dc 503d 3c6f 55bd 8e8f aabd
000000d0: 2074 5cbe fc6b 0a3d 70ae e53d c892 003d
000000e0: ce15 293e 3b39 af3e 1780 a2bd ab81 db3d
000000f0: d4de 17bd 600c 353e fa04 bcbc c888 afbd
00000100: 685a 4ebd c5d0 183e ea4d 4a3e ac44 8c3d
00000110: bed0 f63d aaf5 99be f3c4 be3d a034 633e
00000120: 4d02 43be 8ac3 91bd 10d1 b43d fb75 f93d
00000130: 435b 8abd 8675 573e e4f8 16be ce33 ddbd
00000140: a072 e83c b4b7 ffbc 33cd 8c3d 3a1a 4abd
00000150: 69aa 8c3d 23cf 253c 56af ca3d ac7f 57be
00000160: 90ce 5fbe 9bb8 3fbd 5eae 063e d01b 38be
00000170: e399 e5bd da51 73bd 1342 b4bd 82cd b2bd
00000180: 14a7 a3bc c22f 363e feed 89bd 0f6c ac3d
00000190: ad6c cdbd 28d6 9a3e 4442 0d3e f8cc ac3d
000001a0: 9674 8f3e d0ba 123e 7f00 24be 5b2b 20be
000001b0: d2ed 42be 7173 abbe de49 163d 9528 db3d
000001c0: b72f 89bb 6344 88be ef16 313d a353 103e
000001d0: 4947 28bd b569 a43e 9efd 36be 65db 3cbb
000001e0: 81ae 73bd c3c9 3c3e 4a1b 45be 5fab 503d
000001f0: c17f 4a3e 7f2e 84bd abf8 e3bc aae7 a0be
00000200: 7336 76bd c1fb b3bd 14b5 38bd 6020 72bd
00000210: ccf7 babd f881 87be 1496 933d fc0f 90bd
00000220: 3bb5 003e 128b 8fbe 25ee d23d f9e5 ebbd
00000230: 48d0 013e c051 50be 01e0 453e 27ae 29bd
00000240: f9a5 39be c13c f9bd d5a5 8f3d 94f1 26be
00000250: 1efc 93be edd1 543e 592f 4e3e 2600 6fbd
00000260: 5855 cd3d c934 c4bd afab 333d 2ce9 a3bd
00000270: 6e8e f53d f804 26bd a846 14be 2592 e7bd
00000280: e570 593d 568d 7ebc 040b a83c 66d5 333e
00000290: 99da 8dbd 5e03 253e 6aca 043e 521c e03b
000002a0: ecc6 673c a378 033e c5b3 d93b 1c29 c23e
000002b0: 61d1 fe3d e501 a43d 4b0b 3bbb 1e7c 053e
000002c0: 85ae 943d 95a8 dbbd e8e8 1b3e d412 863e
000002d0: 9688 c33d 4c85 eabd 814d 91bd 6176 813d
000002e0: d90d ecbd abbe 26be ac13 293d e9ba 8abd
000002f0: d445 73bd 210d 70be c174 493e 79f2 4abe
00000300: 5974 373d 381a 9f3e 459b 903d 8039 f8bd
00000310: 88a1 c3bd 251a 4bbd 3e46 5e3d 8284 25be
00000320: 960b 44bb c9a3 0cbd 4705 18bd ff79 6dbe
00000330: 9226 90bd c692 11be b5f3 253d 2bb7 883d
00000340: 7f38 39bd 2f04 34bd af07 c8bd 1269 b5bc
00000350: cb10 8ebd c883 a93d c4a6 b23d 4481 6f3e
00000360: 41ac 6d3d 3f18 063e 8488 25be e2af 363d
00000370: c943 4bbe d8a5 a33b 13c3 133e 57c6 debc
00000380: 0a20 b5bb 0dcc 343e d642 e4bd a1d6 8d3d
00000390: cb38 aebd 6b89 da3c 659f b83c c287 2b3d
000003a0: f2f7 15bc d242 76be 014c cebd 0397 0e3d
000003b0: 4654 aa3d 99cc ed3d b3c9 5d3d 9994 423e
000003c0: e2a9 803e 62e2 98bd 8482 e0bc 02f3 093e
000003d0: d3cb 333e 8c16 e4bc 5711 d8bb cad4 b3bd
000003e0: a554 283d 08ea a6bd d875 b33b 7354 473d
000003f0: e6a4 303e 2108 e7bd c883 7dbd d5be 19bd
-0.17107433 0.068318635 -0.039298818 -0.0946784 0.16517228 -0.014963925 0.18611762 0.28250977
-0.10692218 0.08030138 0.240671 0.22046296 0.09244321 0.061778802 0.046376195 -0.14980541
-0.003293703 0.15723456 0.12903064 -0.009007257 -0.08884909 0.009757905 -0.29031423 0.06446653
0.12986009 -0.086687334 0.013893932 -0.08452683 0.005979763 0.030753657 0.007306985 0.050379146
-0.08627494 0.24602288 0.020624178 0.12514295 -0.04807078 -0.10107802 -0.2139757 -0.06475877
-0.14920157 0.1525563 0.08714963 -0.11334622 -0.056477897 -0.06783751 0.035172116 -0.054974504
-0.04895139 0.05099184 -0.052108034 -0.08328162 -0.21528673 0.03379439 0.11214912 0.03138998
0.16512224 0.3422335 -0.079345874 0.107180916 -0.03707774 0.17680502 -0.022951592 -0.08571011
-0.050379187 0.1492339 0.19756284 0.068490356 0.12051533 -0.3007024 0.09314909 0.22188044
-0.19043846 -0.07117374 0.08828938 0.12180706 -0.06755688 0.21040925 -0.14743382 -0.108008966
0.02837497 -0.031215526 0.06875076 -0.049341418 0.06868441 0.010120186 0.09896724 -0.21044797
-0.21856141 -0.046806913 0.13152453 -0.1797936 -0.11210992 -0.05940423 -0.08801665 -0.08730604
-0.01997713 0.17791656 -0.067348465 0.08419048 -0.10030494 0.30241513 0.1379481 0.08437532
0.28018636 0.14329076 -0.16015814 -0.15641539 -0.19036034 -0.33486512 0.03669154 0.107011
-0.0041865963 -0.26614675 0.04323476 0.14094405 -0.041083608 0.32111898 -0.17870185 -0.0028817293
-0.05949259 0.18436341 -0.19248691 0.050944682 0.19775297 -0.06454181 -0.027828535 -0.31426746
-0.06011052 -0.087882526 -0.045094565 -0.059112906 -0.09129295 -0.26466346 0.072063595 -0.07034299
0.12569134 -0.2803579 0.10299329 -0.11518473 0.12677109 -0.20343685 0.19323732 -0.04142585
-0.1812972 -0.12169791 0.07014052 -0.16303092 -0.28903288 0.20783205 0.20135249 -0.05834975
0.10026044 -0.095803805 0.043864902 -0.080034584 0.11990057 -0.040532082 -0.14480078 -0.11307172
0.05308618 -0.015536627 0.020513065 0.17561874 -0.0692646 0.16114566 0.1296784 0.0068393135
0.014146548 0.12838988 0.0066437447 0.3792199 0.124422796 0.08008174 -0.0028540667 0.13035628
0.072598495 -0.10725514 0.15225565 0.2618624 0.09547536 -0.114512056 -0.07094861 0.06321407
-0.11526079 -0.16283672 0.041278526 -0.067739315 -0.059392765 -0.23442508 0.19673444 -0.19819058
0.044788692 0.3107469 0.07060865 -0.12120342 -0.09552294 -0.04958548 0.054266207 -0.16163829
-0.0029914132 -0.034335885 -0.037114408 -0.23191069 -0.07038607 -0.14216146 0.04051562 0.066755615
-0.045219894 -0.043949302 -0.097670905 -0.022144828 -0.06936797 0.082770884 0.08723214 0.23389155
0.058025602 0.13095187 -0.16165358 0.04460133 -0.19850077 0.0049941353 0.14429884 -0.027194185
-0.005527501 0.17655964 -0.111455604 0.06925703 -0.08506926 0.026676854 0.022536943 0.041877516
-0.009153353 -0.24048927 -0.1007309 0.034811985 0.08316855 0.116112895 0.054147433 0.19001998
0.2512961 -0.07465054 -0.027405985 0.13471606 0.17558222 -0.027842782 -0.006593864 -0.08780821
0.04109635 -0.08150107 0.0054766946 0.04866452 0.17250404 -0.11280847 -0.061893255 -0.037535507

fc3.bias f4 [10]
00000000: 5595 97bd e432 f5be 6113 973e 0d62 333e
00000010: 8ed8 f83e c8e2 4ebe 8ed8 743e 99aa d1be
00000020: f42c e83e c8ce 8cbe
-0.0740153 -0.4789039 0.29506972 0.17517872 0.48602718 -0.20203698 0.23910734 -0.40950468
0.45346797 -0.27501512
