learning resources/4-labs/torch/cifar_net.pth (torch, 251475 bytes, 10 tensors)

conv1.weight f4 [6, 3, 5, 5]
0	0xbe41e1df	-0.18933819
1	0xbe67e669	-0.22646488
2	0xbe21782d	-0.157685
3	0xbd5fd457	-0.054645862
4	0xbe2e33aa	-0.17011896
5	0xbd0496d9	-0.032370422
6	0xbe449ba9	-0.19200005
7	0xbe32eb2c	-0.17472523
8	0xbe1d4977	-0.15360056
9	0xbe1ade94	-0.1512397
10	0x3ca1d9c0	0.019757152
11	0xbde251f2	-0.11050786
12	0xbc9d00eb	-0.019165477
13	0x3d482402	0.048862465
14	0xbd792ebc	-0.060835585
15	0xbc3cad3d	-0.011515913
16	0xbd7ee9ca	-0.062234677
17	0x3dfcbcd5	0.12340704
18	0x3d070320	0.032961965
19	0x3d9c58cc	0.07634124
20	0x3de91f35	0.113829054
21	0xbd6568e5	-0.05600824
22	0x3dd67b3b	0.10472723
23	0x3dd44b80	0.10365963
24	0x3e22abf7	0.15885912
25	0xbe0d4135	-0.13794406
26	0xbeb7b435	-0.35879675
27	0xbe8fc9bc	-0.280836
28	0xbe7920d1	-0.24328925
29	0xbe289407	-0.16462718
30	0xbd37054f	-0.044682797
31	0xbe1257f6	-0.14291367
32	0xbe506506	-0.20351037
33	0xbdf56070	-0.119812846
34	0xbdd8e6bd	-0.10590885
35	0xbd424872	-0.04743237
36	0x3d3cfb39	0.046138022
37	0x3d694e37	0.056959357
38	0xbd385e38	-0.04501173
39	0xbdb29f2e	-0.08721767
40	0x3c7aac4a	0.015299866
41	0x3e08e061	0.13366844
42	0x3b8abbfb	0.004233835
43	0x3e6a963f	0.22908877
44	0x3ca55964	0.020184226
45	0x3cf37a8c	0.02972152
46	0xbc0e1d7a	-0.00867402
47	0xbb80b10f	-0.003927357
48	0x3dc03ed1	0.09386981
49	0x3ddae933	0.106890105
50	0xbd50e98b	-0.051003974
51	0x3d8fd31e	0.07022689
52	0xbc889881	-0.016674282
53	0xbd16d37a	-0.036822774
54	0xbe20035d	-0.15626283
55	0x3dc92536	0.098215505
56	0x3e104757	0.14089714
57	0x3e0eb562	0.1393638
58	0x3dd46b17	0.10371988
59	0x3cc6e891	0.024280818
60	0x3ebf71af	0.3739142
61	0x3eb10e2e	0.3458113
62	0x3edc98f3	0.4308544
63	0x3ec3ad30	0.3821807
64	0x3ea31af7	0.3185651
65	0x3ee0d295	0.4391066
66	0x3edddd25	0.43332782
67	0x3f023886	0.508675
68	0x3f0207d6	0.50793207
69	0x3ebbcaf2	0.36678272
70	0x3ec370af	0.38171908
71	0x3ecbc0db	0.39795575
72	0x3ef0d2b4	0.47035754
73	0x3ec0e540	0.37674904
74	0x3ee5f3d7	0.44912598
75	0xbe99199e	-0.29902357
76	0xbda27357	-0.079321556
77	0xbe81f4a2	-0.25381953
78	0xbe5014af	-0.2032039
79	0xbe8b5748	-0.27215028
80	0xbeb6ba2c	-0.35688913
81	0xbe56103f	-0.20904635
82	0x3c95c74e	0.018283512
83	0xbab229f8	-0.001359283
84	0xbe500dd1	-0.2031777
85	0xbea86384	-0.32888424
86	0xbdd418e0	-0.10356307
87	0x3cc66d67	0.024222089
88	0xbdf44f25	-0.11929158
89	0xbe807e59	-0.25096396
90	0xbece06e7	-0.4023964
91	0xbd557237	-0.052110877
92	0xbde1e670	-0.110302806
93	0xbe2b8aad	-0.1675212
94	0xbd45f8e4	-0.048333064
95	0xbe6698a3	-0.22519164
96	0xbe1cf25b	-0.15326826
97	0x3da38431	0.07984198
98	0x3df94f2a	0.121733025
99	0x3ded1266	0.11575775
100	0x3ba8680b	0.005139356
101	0x3eae9505	0.34098068
102	0x3e953aa5	0.29146305
103	0x3ddc9213	0.10770049
104	0x3e311d03	0.17296223
105	0x3d75c7df	0.060005065
106	0x3ebc5da5	0.36790195
107	0x3ed1437b	0.40871796
108	0x3e85ae78	0.26109672
109	0x3e898751	0.2686105
110	0x3e2ad884	0.16684157
111	0x3eaa1793	0.3322111
112	0x3ed97747	0.42473814
113	0x3e6fd649	0.23421587
114	0x3e919366	0.2843277
115	0x3d90aa4f	0.07063734
116	0x3e560471	0.20900132
117	0x3ef28d79	0.4737356
118	0x3ea7be6a	0.32762462
119	0x3e83dae4	0.25752938
120	0x3e0e730d	0.13911076
121	0x3e0ca495	0.13734658
122	0x3ead91c3	0.3390027
123	0x3eb1c6ce	0.34721988
124	0x3f098931	0.5372496
125	0xbe181607	-0.14852153
126	0xbd095ede	-0.033537738
127	0xbd645695	-0.055746634
128	0xbd8a5b56	-0.06755702
129	0xbe063c93	-0.13109045
130	0x3d0218c8	0.031761914
131	0xbc997096	-0.018730443
132	0xbd2253f5	-0.03963085
133	0xbdd07f55	-0.10180537
134	0xbe136e62	-0.14397576
135	0xbe44fc26	-0.19236812
136	0x3e0bb5c5	0.13643558
137	0x3d742583	0.059606086
138	0xbe30fa83	-0.17283063
139	0xbda160bc	-0.07879779
140	0xbe82f2ee	-0.25575966
141	0x3ddb600b	0.10711678
142	0x3daee28e	0.085393056
143	0xbe086354	-0.1331914
144	0xbe1c4878	-0.1526202
145	0xbe0c6c5b	-0.1371321
146	0xbdf36ae1	-0.1188562
147	0x3c0c2dbc	0.008555826
148	0xbdbb7df0	-0.0915488
149	0xbdd6d20b	-0.10489281
150	0xbe4a4208	-0.19751751
151	0xbead06da	-0.3379429
152	0xbf02d9d4	-0.5111363
153	0xbecfda25	-0.4059612
154	0xbed9cb99	-0.42538145
155	0x3e323e56	0.17406592
156	0x3e641adb	0.2227587
157	0x3e3143e4	0.17311054
158	0x3e95ecc2	0.29282194
159	0x3e234c12	0.15946987
160	0xbe9dc192	-0.30811745
161	0xbe2d8569	-0.16945423
162	0xbe436b7f	-0.19083975
163	0xbe62e830	-0.22158885
164	0xbe3c00a2	-0.18359616
165	0xbeca3705	-0.39495102
166	0xbf1b26a1	-0.6060582
167	0xbee4a834	-0.4465958
168	0xbf06b07a	-0.5261303
169	0xbf07bc69	-0.53021866
170	0xbd900e1c	-0.07033941
171	0x3a195778	0.00058495207
172	0xbe89d485	-0.26919952
173	0xbe83bd9c	-0.25730598
174	0xbeaa819a	-0.33302003
175	0xbe35c495	-0.17750771
176	0xbe0e122d	-0.13874121
177	0xbeb42c2e	-0.35189956
178	0xbe98ff3c	-0.29882228
179	0xbe8d2fa9	-0.27575424
180	0x3ea0d97b	0.31415924
181	0x3ec56e6d	0.3856081
182	0x3f083420	0.53204536
183	0x3f0747b3	0.5284378
184	0x3ead1f85	0.3381311
185	0xbdf5487e	-0.119767174
186	0x3ccfe48a	0.02537753
187	0x3d8695c4	0.06571534
188	0x3c8c17b2	0.017101143
189	0xbe26e047	-0.16296493
190	0xbf1c176c	-0.6097324
191	0xbefba608	-0.4915011
192	0xbf1287ba	-0.5723835
193	0xbf011e5e	-0.5043696
194	0xbed4008d	-0.4140667
195	0xbe014bd3	-0.12626581
196	0xbe4e614a	-0.201543
197	0xbdf5e54f	-0.12006628
198	0xbe349dfa	-0.17638388
199	0xbead1ae5	-0.3380958
200	0x3e83eddc	0.2576741
201	0xbc6d1a4e	-0.014471604
202	0xbd8333b4	-0.06406346
203	0xbe4d0597	-0.20021664
204	0xbb9657e0	-0.0045881122
205	0x3f24c2dd	0.6435984
206	0x3f2e4330	0.6807127
207	0x3f55c64d	0.8350571
208	0x3f39c3b8	0.7256427
209	0x3f161dac	0.58639026
210	0x3ec37973	0.38178596
211	0x3ee73c23	0.45163068
212	0x3edcdb1f	0.43135926
213	0x3eb49dcd	0.35276642
214	0x3e39b72a	0.18136278
215	0xbdbe7cd3	-0.09301152
216	0xbcad3ad8	-0.021146223
217	0xbe21ee9c	-0.15813679
218	0x3da7d61a	0.081951335
219	0x3d7162e9	0.05893222
220	0x3ed9cac4	0.4253751
221	0x3f0b2216	0.54348886
222	0x3eed55b3	0.46354446
223	0x3e8fbba9	0.2807286
224	0x3e83025f	0.25587747
225	0x3e8d1462	0.27554613
226	0x3dc4e45b	0.09613868
227	0xbca3565e	-0.019938644
228	0xbe0725db	-0.13198034
229	0xbe6dd18b	-0.23224466
230	0x3ec23277	0.37929127
231	0x3e85cd59	0.2613323
232	0x3e4d92ba	0.20075503
233	0xbda86e72	-0.08224191
234	0xbe831b1a	-0.25606614
235	0x3e790612	0.24318722
236	0x3e33afcc	0.1754753
237	0x3e7f7965	0.24948652
238	0xbd6ccfa5	-0.057815213
239	0xbe94dba7	-0.2907383
240	0x3e75c30a	0.24000183
241	0x3dcae8aa	0.099076584
242	0x3e1f0b34	0.15531617
243	0x3e095b58	0.13413751
244	0xbaaaec5d	-0.0013040412
245	0x3ea212f6	0.3165509
246	0x3da3d8c6	0.080003306
247	0x3da2ebe8	0.07955152
248	0x3d0716ff	0.032980915
249	0xbdffd040	-0.124908924
250	0xbbcebfb4	-0.006309474
251	0xbaf5e4b3	-0.0018760174
252	0xbe8cd6ff	-0.2750778
253	0xbece412b	-0.40284094
254	0xbeda0964	-0.4258529
255	0x3e7e590f	0.2483866

conv1.bias f4 [6]
0	0xbfa4dd4e	-1.2880037
1	0xbf770091	-0.9648524
2	0xc006fa5a	-2.1090302
3	0xbfedd336	-1.8580081
4	0xbf24f2dc	-0.64433074
5	0xc01c0be5	-2.438226

conv2.weight f4 [16, 6, 5, 5]
0	0x3d8e3c2b	0.0694507
1	0x3dc339d3	0.095325135
2	0x3d04d5ca	0.032430448
3	0x3ef63bec	0.48092592
4	0x3f1ba60f	0.6080026
5	0xbe24e6b1	-0.16103627
6	0xbe6da1de	-0.23206279
7	0xbe9afeb1	-0.3027244
8	0x3c1b3038	0.009471945
9	0x3eab91ed	0.3350977
10	0xbdf4918b	-0.119418226
11	0xbe26d429	-0.1629187
12	0xbe61ad37	-0.22038732
13	0xbe7751d9	-0.24152316
14	0xbe1c8587	-0.15285312
15	0xbe100ac8	-0.14066613
16	0xbdc1fbcb	-0.09471854
17	0xbe09251c	-0.13393062
18	0xbe11853d	-0.14210983
19	0xbde4810e	-0.11157428
20	0xbe7731f1	-0.24140145
21	0xbeb8d010	-0.3609624
22	0xbe53fe38	-0.20702446
23	0x3bcfa216	0.006336461
24	0x3d921d71	0.07134522
25	0xbd9ea857	-0.07746952
26	0xbdf2edf4	-0.11861792
27	0xbdc6d3a6	-0.097083375
28	0xbd849284	-0.06473258
29	0xbd637983	-0.055535804
30	0x3d53e138	0.051728457
31	0xbd298cec	-0.04139416
32	0xbdace263	-0.08441617
33	0x3d23f6ed	0.04003041
34	0x3c65830e	0.014008297
35	0xbde1fe79	-0.11034865
36	0xbd5f1f9f	-0.054473516
37	0xbdf6dd0d	-0.12053881
38	0x3c5ae64c	0.013360571
39	0xbd915577	-0.07096379
40	0xbdd87924	-0.10569981
41	0x3bb805d3	0.0056159287
42	0xbbbd3f87	-0.0057753953
43	0xbb1dbf66	-0.0024070381
44	0xbd903f2d	-0.070433
45	0xbdd7a934	-0.1053032
46	0x3d1bb737	0.038016524
47	0xbc82234f	-0.015885977
48	0x3d4ad175	0.04951616
49	0xba83542a	-0.001001959
50	0xbe8b7a6f	-0.27241847
51	0xbdeebeb1	-0.11657465
52	0xbd202061	-0.03909338
53	0xbe44a716	-0.19204363
54	0xbd4a73b5	-0.049426753
55	0xbcd83129	-0.026390629
56	0xbd8f37c0	-0.06993055
57	0xbdd2b998	-0.102893054
58	0xbd6915fb	-0.056905728
59	0x3de31c85	0.11089424
60	0xbdd6cbd5	-0.104880966
61	0xbe3377ce	-0.1752617
62	0xbe805e6a	-0.25072032
63	0xbd95ec57	-0.07320469
64	0xbe4a7ed3	-0.19774942
65	0xbe88b14f	-0.26697776
66	0xbe3e1b26	-0.18565044
67	0xbe3755bc	-0.17903799
68	0xbe6ff4af	-0.23433183
69	0xbea1ca04	-0.31599438
70	0xbe6437d0	-0.22286916
71	0xbe70fa08	-0.2353288
72	0xbe6a9368	-0.22907794
73	0xbe9e9ad5	-0.30977502
74	0xbf0056bf	-0.50132364
75	0x3d22b0e2	0.03971947
76	0xbe7c5e57	-0.24645363
77	0xbe87ce5e	-0.26524633
78	0x3d95face	0.07323228
79	0x3ef8777c	0.4852866
80	0x3c231888	0.009954579
81	0xbe65a084	-0.22424513
82	0xbed13c28	-0.40866208
83	0xbea455fd	-0.32096854
84	0x3f1431c9	0.57888466
85	0x3e2f8b0f	0.1714289
86	0xbea24e2e	-0.3170027
87	0xbe8f14c0	-0.27945518
88	0xbed9af9d	-0.42516795
89	0x3d351b8b	0.04421572
90	0x3e45361b	0.19258921
91	0xbe818c89	-0.25302532
92	0xbe07d6cf	-0.13265537
93	0xbe05328a	-0.1300756
94	0xbd620090	-0.055176318
95	0x3b11569d	0.002217687
96	0xbe826295	-0.25465837
97	0xbdfcc30e	-0.12341891
98	0x3d2cf3ab	0.042224567
99	0xbd3cbabc	-0.04607652
100	0xbe6d86da	-0.23195973
101	0xbeda1e9f	-0.42601487
102	0xbefdc646	-0.49565333
103	0xbe2c0333	-0.16798095
104	0x3e7745db	0.24147741
105	0xbe92257b	-0.2854422
106	0xbea68c4f	-0.32528922
107	0xbe771595	-0.24129327
108	0xbdb1fe31	-0.08691061
109	0x3efd9dd5	0.4953448
110	0xbe88e38d	-0.26736107
111	0xbe394c1e	-0.18095443
112	0x3c55e5f1	0.013055311
113	0xbd69f2a9	-0.057116184
114	0x3e8fa63b	0.2805651
115	0xbeb22ec7	-0.34801313
116	0xbe30e072	-0.17273119
117	0x3cd90e13	0.026495969
118	0x3db4b5d9	0.08823747
119	0xbac40474	-0.001495494
120	0xbee92efa	-0.45543653
121	0xbea5c673	-0.32377967
122	0xbd88b471	-0.066750415
123	0x3e051933	0.12997894
124	0xbd8e9478	-0.06961912
125	0x3d8e21c2	0.069400325
126	0xbe014d72	-0.126272
127	0xbe06d2cf	-0.13166355
128	0xbe873271	-0.2640567
129	0xbd973bc7	-0.073844485
130	0x3e406843	0.18789773
131	0x3c9289e3	0.017888015
132	0xbe3416c1	-0.17586805
133	0xbdb44d4c	-0.08803806
134	0x3ba89b6e	0.005145482
135	0x3ca54ade	0.020177301
136	0x3cd1537c	0.025552504
137	0xbde06ea8	-0.10958606
138	0xbdfefc3a	-0.12450452
139	0xbd70ae16	-0.05875977
140	0xbddbd7f1	-0.10734547
141	0xbd1a1528	-0.037617832
142	0xbe52ffe2	-0.20605424
143	0xbdee7ef5	-0.11645309
144	0xbddd2691	-0.107983716
145	0xbe1a3b7b	-0.15061752
146	0xbddbf433	-0.10739937
147	0xbe8af4a3	-0.27139768
148	0xbe446c8d	-0.19182034
149	0xbe872221	-0.26393226
150	0xbd40fbb7	-0.047115054
151	0xbb7054ff	-0.0036671755
152	0xbd02e041	-0.031952146
153	0xbcfdaaea	-0.030965287
154	0xbd175896	-0.036949717
155	0xbb2271b4	-0.002478701
156	0xbdf7e8ea	-0.12104972
157	0xbe0fe40a	-0.14051834
158	0xbd4e43a9	-0.050357495
159	0xbe15eaaf	-0.14640306
160	0xbcab1dff	-0.020888327
161	0xba1fa848	-0.00060904445
162	0xbdc0406c	-0.093872875
163	0xbdcb1746	-0.099165484
164	0xbd533d03	-0.051571857
165	0x3ce6b36a	0.028161723
166	0xbd2e9bf2	-0.04262919
167	0xbcea60c1	-0.028610589
168	0xbd0a0584	-0.033696666
169	0xbd71d1a7	-0.05903783
170	0x3c34fe55	0.011046966
171	0xbd1f4a1a	-0.038889028
172	0xbde489a2	-0.11159064
173	0xbd991169	-0.07474024
174	0xbba9c703	-0.0051811947
175	0x3cf7ce80	0.030249834
176	0x3c26b7e8	0.010175683
177	0xbad6115f	-0.0016332081
178	0x3ccb09ef	0.02478501
179	0xbcc4c95f	-0.024021802
180	0x3cf80267	0.030274583
181	0x3c344393	0.011002439
182	0xbcfa867d	-0.030581707
183	0xbb86cab0	-0.0041135177
184	0xbdd6d543	-0.10489895
185	0x3c90b0e2	0.01766247
186	0xbd8bad89	-0.068202086
187	0xbd8b1408	-0.0679093
188	0xbc16f661	-0.009214015
189	0xbdd2b37e	-0.10288142
190	0x3d23628e	0.03988891
191	0xbdbe4422	-0.09290339
192	0xbdd07103	-0.10177805
193	0x3bf5831a	0.007492435
194	0x3c90f000	0.017692566
195	0xbd3a7eab	-0.045530956
196	0xbccae4f6	-0.02476738
197	0xbdaf4f66	-0.08560066
198	0xbde4a202	-0.11163713
199	0xbcd9eb7f	-0.026601551
200	0x3dd7dbdd	0.105399825
201	0x3d99f60b	0.07517632
202	0x3cf138e2	0.02944607
203	0xbe12a7ce	-0.14321825
204	0xbe12c8cf	-0.14334415
205	0xbddd2f86	-0.1080008
206	0xbd829d39	-0.06377644
207	0xbdee37c1	-0.11631728
208	0xbd89f27c	-0.06735703
209	0xbdca3f7a	-0.098753884
210	0xbe4c1cc8	-0.19932854
211	0xbd9da3a1	-0.07697225
212	0xbd6e2fd9	-0.0581511
213	0xbe17e65e	-0.14833972
214	0xbd957b52	-0.07298912
215	0x3d10e243	0.03537203
216	0xbd1f4a71	-0.038889352
217	0xbddb4240	-0.107059956
218	0xbdfa5049	-0.122223444
219	0xbdcd42e0	-0.10022521
220	0x3d63b206	0.0555897
221	0xbdb0a8df	-0.086259596
222	0xbb82cf37	-0.003991987
223	0xbd93daaa	-0.07219441
224	0x3cc525bb	0.024065843
225	0xbdbf520e	-0.093418226
226	0xbe1b0fd6	-0.1514276
227	0xbe187404	-0.14888006
228	0xbe476e06	-0.19475564
229	0xbe1d1c10	-0.15342736
230	0xbe0c5bb9	-0.13706864
231	0xbc9fb382	-0.019494776
232	0xbe44d67d	-0.19222446
233	0xbe0b38bf	-0.13595866
234	0xbe2209a9	-0.15823998
235	0xbe0f5642	-0.13997748
236	0xbe053444	-0.13008219
237	0xbe05b4e4	-0.13057286
238	0xbdee3d89	-0.11632831
239	0xbe373cbc	-0.17894262
240	0xbe01d349	-0.12678255
241	0xbe039f8d	-0.12853833
242	0xbdf55051	-0.1197821
243	0xbde37184	-0.11105636
244	0xbe3688b2	-0.17825583
245	0xbd6dba80	-0.05803919
246	0xbdb2b085	-0.08725075
247	0xbd85f7e8	-0.06541425
248	0xbd7d0d29	-0.06178013
249	0xbd952904	-0.07283214
250	0x3c2be942	0.010492625
251	0xbdfffadc	-0.124990195
252	0xbe21a954	-0.1578725
253	0xbe3a86b5	-0.18215449
254	0xbe049d93	-0.12950735
255	0xbc3ed88f	-0.011648311

conv2.bias f4 [16]
0	0xbe530934	-0.2060898
1	0x3e58e3df	0.21180676
2	0xbd978aa9	-0.07399494
3	0xbeee1697	-0.4650161
4	0xbded1b19	-0.11577434
5	0x3d0555f7	0.032552686
6	0xbd69b6e8	-0.0570592
7	0xbde581e7	-0.112064175
8	0x3fbdda0e	1.483217
9	0xbecb29c5	-0.39680305
10	0xbd9f36a9	-0.077740975
11	0x3eb24193	0.34815654
12	0xbe9e23c1	-0.30886653
13	0x3d6ce78c	0.057838008
14	0xbdc4fce7	-0.0961855
15	0xbe75327d	-0.23945041

fc1.weight f4 [120, 400]
0	0x3d2ae9af	0.041726764
1	0x3e5962e4	0.2122913
2	0xbcc2ef00	-0.023795605
3	0xbd666ffd	-0.056259144
4	0x3d4b7ae8	0.04967776
5	0x3ba9335a	0.0051635923
6	0x3dffed02	0.124963775
7	0x3d9fc67d	0.078015305
8	0x3e1a4a37	0.15067373
9	0x3b996fe8	0.0046825297
10	0xbcec5c26	-0.028852534
11	0xbd231182	-0.03981162
12	0x3d64d034	0.05586262
13	0x3d6eeab8	0.058329314
14	0x3d892a99	0.06697578
15	0xbdb8ce5a	-0.090237334
16	0xbd669555	-0.056294758
17	0xbe0e0167	-0.13867722
18	0xbdfcdae7	-0.1234644
19	0xbcb2bef2	-0.021819565
20	0xbdaf19be	-0.08549832
21	0x3da4f2fe	0.080541596
22	0x3d52cc1a	0.051464178
23	0xbe5eed88	-0.21770298
24	0xbd9f6032	-0.0778202
25	0xbd8fe26a	-0.07025607
26	0x3cc2110e	0.023689773
27	0xbc4b15e7	-0.012395359
28	0x3cabba1f	0.020962773
29	0x3c156957	0.009119353
30	0xbc866302	-0.016404632
31	0xbcb59fcd	-0.022170926
32	0xbbd065a9	-0.006359775
33	0x3d285f12	0.04110629
34	0xb92bbcf6	-0.00016378224
35	0x3a1d3bb3	0.00059979706
36	0xbd54d3e7	-0.0519599
37	0xbb5ea1e7	-0.0033971013
38	0x3cbb2dd6	0.022849005
39	0xbb18071b	-0.0023197595
40	0xbd36c4da	-0.044621326
41	0xbc4ab22c	-0.012371581
42	0xbd37f692	-0.044912882
43	0x3c823143	0.01589263
44	0x3d6b5aef	0.057459768
45	0xbcb6dbf7	-0.022321684
46	0x3be0a4ff	0.0068556066
47	0xbcfc20ac	-0.030777298
48	0xbc022cbd	-0.007945237
49	0x3b38d9b9	0.0028205945
50	0x3bedaa61	0.0072529768
51	0xbca736ee	-0.020411935
52	0xbd7d6655	-0.06186517
53	0xbbeaf687	-0.0071705016
54	0x3d65f6d5	0.0561436
55	0xbe54fc69	-0.20799412
56	0xbdd0926f	-0.1018418
57	0xbd46953f	-0.048482176
58	0x3c48479d	0.012224105
59	0x3bcf4bbc	0.006326167
60	0xbe1e44d1	-0.15455939
61	0xbe055acc	-0.13022918
62	0xbdb933f2	-0.09043111
63	0xbc5a76b8	-0.013333969
64	0x3c470de7	0.012149311
65	0xbc812e80	-0.015769243
66	0xbddc97b3	-0.10771122
67	0xbda73f75	-0.081664
68	0xbb903418	-0.0044007413
69	0x3d9148f1	0.070939906
70	0xbda57bb9	-0.08080239
71	0xbe162b1b	-0.14664881
72	0xbd65fce8	-0.056149393
73	0xbd66226f	-0.056185182
74	0x3b9bf15d	0.0047589974
75	0x3dc164ea	0.09443076
76	0x3da7831f	0.08179306
77	0x3c8fe4e1	0.017565193
78	0xbd1eee89	-0.038801704
79	0xbd3c62db	-0.045992713
80	0xbd508430	-0.050907314
81	0xbccf1bac	-0.02528175
82	0xbdcd5d02	-0.100275055
83	0xbc9b8dd2	-0.018988524
84	0xbcc95d8c	-0.02458074
85	0xbe0421f8	-0.12903583
86	0xbde64f33	-0.11245575
87	0xbd8d8d27	-0.06911688
88	0xbe01f6c4	-0.1269179
89	0xbc0ac8e2	-0.008470746
90	0xbbca479d	-0.0061730877
91	0xbdbef663	-0.09324338
92	0xbbeb1ee7	-0.0071753147
93	0xbd10e46b	-0.035374086
94	0xbda11110	-0.078645825
95	0xbda71415	-0.08158127
96	0xbd945670	-0.07243049
97	0xbd7ea642	-0.062170275
98	0xbd07783f	-0.03307366
99	0xbd90654f	-0.07050573
100	0x3cb823e8	0.022478059
101	0xbd560308	-0.052248985
102	0xbc9e3af5	-0.019315222
103	0x3cf03e09	0.029326456
104	0xbd21db96	-0.039516054
105	0x3c3ee6a7	0.0116516715
106	0xbb66cf7e	-0.003521889
107	0xbcf6ea48	-0.03014101
108	0x3ceca703	0.028888231
109	0xbc141833	-0.009038973
110	0x3d30f8df	0.043206092
111	0x3cde8e42	0.027167443
112	0x3c5a3cdc	0.013320174
113	0xbae579d7	-0.0017507625
114	0xbcf5ca9f	-0.030003844
115	0x3b1b8698	0.0023731347
116	0x3c595d6e	0.013266904
117	0x3a1806e8	0.0005799369
118	0x3b29b39f	0.0025894416
119	0xbd1a1dbb	-0.03762601
120	0xbd09d662	-0.033651717
121	0x3c7103ed	0.014710409
122	0xbbb180a2	-0.0054169456
123	0x3ce038bd	0.027370805
124	0xbd1767e3	-0.03696431
125	0xbd938077	-0.07202237
126	0xbdfd31c8	-0.12363011
127	0xbdbd0a4f	-0.09230482
128	0xbd90c038	-0.07067913
129	0xbcab184b	-0.020885607
130	0xbd325c9d	-0.043545354
131	0xbd320db8	-0.043470114
132	0xbb2834ad	-0.0025666163
133	0x3d473361	0.048632983
134	0x3e24a5b8	0.16078842
135	0x3d4a7f85	0.04943802
136	0xbd231174	-0.039811566
137	0x3ce6332b	0.02810057
138	0x3e0ad339	0.13557138
139	0x3e2136d9	0.15743579
140	0x3dafdc68	0.08586961
141	0x3d193ebc	0.037413344
142	0xbc355c14	-0.011069316
143	0x3d04fc4c	0.03246717
144	0x3c03f4b1	0.008053944
145	0x3dde95d5	0.10868422
146	0xbda3d546	-0.07999663
147	0xbc423a1a	-0.011854673
148	0x3de4290f	0.11140644
149	0x3c778c4c	0.015109133
150	0x3dda8774	0.10670367
151	0x3e41251a	0.1886181
152	0xbc4b20e2	-0.012397977
153	0xbb6c162b	-0.0036023955
154	0x3e0feae7	0.14054452
155	0x3d80f730	0.06297147
156	0x3d38027f	0.044924255
157	0x3cc7fb18	0.024411723
158	0xbd77fb5e	-0.060542457
159	0xbd8c0e8c	-0.06838712
160	0x3ca096c8	0.019603148
161	0xbbe0dd4d	-0.0068623186
162	0xbd44ca1b	-0.048044305
163	0xbde1d290	-0.1102649
164	0xbdf50f65	-0.11965827
165	0x3d45bd60	0.048276305
166	0xbccde9f3	-0.02513597
167	0x3d972ef6	0.07382004
168	0x3d9d4fd4	0.07681242
169	0x3de6fef3	0.112790965
170	0x3b0ee649	0.002180474
171	0xbcc9c17b	-0.024628391
172	0xbce76377	-0.02824567
173	0x3d4bf63a	0.049795367
174	0x3ca52359	0.020158457
175	0x3d2f1c82	0.042751797
176	0x3cdf7a31	0.027279945
177	0x3d80f395	0.062964596
178	0xbd0f19bb	-0.034936648
179	0xbd365bd3	-0.044521164
180	0xbc6f105c	-0.014591303
181	0xbd287477	-0.041126695
182	0x3b58421c	0.0032998389
183	0x3c2ffc98	0.010741375
184	0xbd12d379	-0.035846207
185	0xbdbedf69	-0.09319956
186	0xbd9ee162	-0.07757832
187	0xbd5e8310	-0.05432421
188	0xbdf65812	-0.12028517
189	0xbdfac678	-0.12244886
190	0xbcedcd57	-0.029028578
191	0xbd72951d	-0.059224237
192	0xbdd76145	-0.105165996
193	0xbd2c6b81	-0.04209471
194	0xbd14948a	-0.03627447
195	0x3c17bfb0	0.00926201
196	0xbd7fc5d0	-0.062444508
197	0xbd0508ee	-0.03247922
198	0xbd825d12	-0.06365408
199	0xbb914506	-0.004433277
200	0xbe80f691	-0.25188115
201	0xbdfdc019	-0.12390155
202	0xbe3e220a	-0.18567672
203	0xbe0c386d	-0.136934
204	0xbd8fc0ab	-0.070191704
205	0xbe3b1085	-0.1826802
206	0xbe09b700	-0.13448715
207	0xbe6d7e80	-0.23192787
208	0xbd7b5881	-0.0613637
209	0xbc9b8ef6	-0.018989068
210	0xbdce3935	-0.10069505
211	0xbe50123f	-0.2031946
212	0xbe7b3d8c	-0.24535197
213	0xbdea206f	-0.114319675
214	0x3d656b34	0.05601044
215	0xbc747225	-0.014919792
216	0xbc964c4a	-0.018346924
217	0xbddcdc1b	-0.10784169
218	0xbc300646	-0.010743683
219	0xbd171f88	-0.036895305
220	0x3da635bd	0.081157185
221	0x3e5febe0	0.21867323
222	0x3e34b18c	0.17645854
223	0x3e08c4a6	0.13356265
224	0x3dc48cac	0.095971435
225	0xbdaf8ab0	-0.085713744
226	0x3c98cc71	0.018652173
227	0x3ddb47f5	0.10707084
228	0x3d173e61	0.036924724
229	0x3c67eca6	0.0141555425
230	0xbdec99bc	-0.1155276
231	0xbdf95fbc	-0.12176463
232	0x3dcecfbb	0.10098215
233	0x3dbb548f	0.09146988
234	0x3d95d311	0.07315648
235	0xbdb79b73	-0.089651965
236	0xbe1d30bd	-0.15350623
237	0xbdba9201	-0.09109879
238	0xbe1e25d1	-0.15444113
239	0xbd191f58	-0.037383407
240	0x3cb833ac	0.022485577
241	0xbb50bad9	-0.003184965
242	0xbd163bf8	-0.036678284
243	0xbdc452f1	-0.09586132
244	0xbd3da953	-0.04630406
245	0xbd989de0	-0.07451987
246	0xbdaf2406	-0.08551793
247	0xbd918508	-0.07105452
248	0xbd9d7e41	-0.07690097
249	0xbc8f461b	-0.017489484
250	0x3cbb0e34	0.022833921
251	0xbc33cda9	-0.010974326
252	0xbd02fdc9	-0.03198031
253	0xbd321409	-0.04347614
254	0x3c75c711	0.015001074
255	0xbd331f63	-0.043731105

fc1.bias f4 [120]
0	0xbdc5334f	-0.09628927
1	0xbd9d11a5	-0.07669381
2	0x3b9dedb5	0.0048195967
3	0xbb014b24	-0.0019728625
4	0x3cd40af4	0.02588413
5	0x3e0ed6d7	0.13949142
6	0x3f3ee91b	0.7457444
7	0xbdc728cc	-0.09724578
8	0xbb886ae9	-0.0041631353
9	0xbe78d8ec	-0.24301499
10	0x3df969cf	0.121783845
11	0x3e6291f9	0.22125997
12	0xbc48ef5b	-0.012264098
13	0xbe600f45	-0.21880825
14	0xbbaf006b	-0.005340626
15	0xbde04aae	-0.10951744
16	0x3e63850c	0.22218722
17	0xbd3f648f	-0.04672676
18	0x3e308dbc	0.17241567
19	0x3db72377	0.08942311
20	0xbc260c14	-0.010134716
21	0x3c301246	0.010746544
22	0x3eb7b92e	0.35883468
23	0x3d913914	0.07090965
24	0x3cc9269c	0.024554543
25	0xbdb121fb	-0.086490594
26	0x3e0dd632	0.1385124
27	0x3cfadc18	0.030622527
28	0xbd10e2d3	-0.035372566
29	0x3d8aed56	0.067835495
30	0x3cf72eb3	0.030173635
31	0xbdcf1cc7	-0.10112911
32	0xbd994a1c	-0.07484838
33	0x3e1c0265	0.15235288
34	0xbdc00f68	-0.093779385
35	0x3d5e8687	0.054327514
36	0xbc920bd2	-0.017827902
37	0x3d249801	0.040184025
38	0xbc6ea123	-0.014564785
39	0x3e0b379b	0.1359543
40	0xbe998aef	-0.2998881
41	0x3bf47f47	0.0074614617
42	0x3e39a038	0.18127525
43	0x3e11b572	0.14229372
44	0xbe18ecec	-0.14934129
45	0x3ece7596	0.40324086
46	0xbd8b7807	-0.06810003
47	0x3e03f019	0.12884559
48	0xbda99bf0	-0.08281696
49	0x3f0460ea	0.5171038
50	0x3e47a566	0.19496688
51	0xbd8a522f	-0.067539565
52	0xbd7b290f	-0.061318453
53	0xbd193d01	-0.037411693
54	0x3d09b42c	0.03361909
55	0x3e1a763e	0.15084168
56	0xbd1f4f0c	-0.038893744
57	0xbd13c4ec	-0.03607647
58	0xbd846997	-0.06465452
59	0xbe4946ea	-0.19655958
60	0xbda96f34	-0.082731634
61	0xbc3ce9c7	-0.011530346
62	0xbca0fa0b	-0.01965048
63	0x3e52da4f	0.2059109
64	0xbe8f4730	-0.27984
65	0x3ec53ec0	0.38524437
66	0xbd4f7448	-0.050648004
67	0x3dce3201	0.10068131
68	0xbcccf7ce	-0.025020506
69	0xbd6ae3df	-0.05734622
70	0x3be14bbf	0.0068754847
71	0xbd5b1192	-0.053483553
72	0x3c3f4228	0.011673488
73	0xbd6ab151	-0.05729801
74	0x3db05dea	0.08611663
75	0xbba3f43f	-0.0050034816
76	0xbde5b193	-0.1121551
77	0xbd0b0ca2	-0.033947594
78	0x3eae7829	0.3407605
79	0xbcb51b61	-0.022107782
80	0xbe2f1e58	-0.17101419
81	0xbc5ff4a9	-0.013669171
82	0xbc5b8c84	-0.013400201
83	0x3dececf5	0.115686335
84	0x3e832422	0.25613505
85	0xbda56bfe	-0.080772385
86	0xbc86b554	-0.016443886
87	0xbc2c9c40	-0.0105353
88	0x3d8e2d08	0.06942183
89	0x3d1bb756	0.03801664
90	0xbd870c4f	-0.065941446
91	0x3e05b670	0.13057876
92	0x3cb78458	0.022401974
93	0xbeeb94a8	-0.46011853
94	0xbe0dbd0d	-0.13841648
95	0xbe04820d	-0.12940235
96	0xbd72e487	-0.059299972
97	0xbd3029d2	-0.043008633
98	0x3da4a106	0.08038525
99	0x3e957ca6	0.29196662
100	0xbe5848ef	-0.21121572
101	0xbcb2e8f5	-0.021839598
102	0xbeaa0ba5	-0.3321201
103	0x3f11d476	0.56964815
104	0xbd5dce7c	-0.054151997
105	0xbd768af7	-0.06019112
106	0x3cef7859	0.02923219
107	0xbe393893	-0.18087988
108	0xbdb17910	-0.08665669
109	0xbd5749de	-0.05256068
110	0x3d8bd8bc	0.06828448
111	0xbd8da250	-0.06915724
112	0xbe91bbc2	-0.2846356
113	0xbc8d16e0	-0.017222822
114	0xbe2b54a1	-0.16731502
115	0xbd90a95f	-0.07063555
116	0x3e78f099	0.2431053
117	0xbe384f9c	-0.17999119
118	0xbe6027a7	-0.21890126
119	0xbdc624be	-0.09674977

fc2.weight f4 [84, 120]
0	0xbda39bb1	-0.0798868
1	0xbdaffb37	-0.08592837
2	0xbdba939a	-0.09110184
3	0x3d80d1e5	0.06290034
4	0x3d82faef	0.06395518
5	0xbd287910	-0.04113108
6	0xbccdd828	-0.025127485
7	0xbd34fc0d	-0.044185687
8	0xbd9389c4	-0.07204011
9	0xbd9c2561	-0.07624317
10	0x3d9b7240	0.07590151
11	0xbd705bbd	-0.05868124
12	0x3d8c83c6	0.06861071
13	0x383606f8	4.339867e-05
14	0xbdbb1dfb	-0.09136578
15	0x3a3569e4	0.0006920381
16	0xbc757be3	-0.01498315
17	0xbd6bff86	-0.057616733
18	0x3c5d065d	0.013490287
19	0x3dad627b	0.08466049
20	0x3cba3f7e	0.022735354
21	0xbc7b1094	-0.015323777
22	0x3cbda476	0.02314971
23	0x3bb357ea	0.0054731267
24	0xbd5f40d2	-0.054505177
25	0xbcff5127	-0.031166626
26	0xbcef2aa7	-0.029195143
27	0xbd4453ef	-0.047931608
28	0xbda58735	-0.08082429
29	0x3c5c1f0b	0.013435136
30	0xbd7b2d4c	-0.061322495
31	0x3c5f6a19	0.0136361355
32	0x3d68b28e	0.056810908
33	0xbd44db18	-0.048060507
34	0xbdb57c0b	-0.0886155
35	0x3d8ee46a	0.0697716
36	0x3c87a41b	0.016557744
37	0xbd30a876	-0.043129407
38	0xbcb2edbb	-0.021841874
39	0xbb85f0db	-0.00408755
40	0xbd8b6bb7	-0.06807654
41	0xbc1aee49	-0.009456226
42	0xbd1dbba2	-0.03850902
43	0xbb6baf01	-0.0035962465
44	0xbdaed6ae	-0.08537041
45	0xbdb3c940	-0.0877862
46	0xbd5b8b00	-0.053599358
47	0xbd8c8ba8	-0.06862575
48	0x3c7d634f	0.015465572
49	0x3c766c0a	0.015040407
50	0xbd96c703	-0.07362177
51	0x3cdb6fab	0.026786646
52	0x3b071c91	0.0020616392
53	0xbcaf5046	-0.021400582
54	0x3bacd6c0	0.0052746236
55	0x3bcb75ea	0.006209125
56	0xbcda9f61	-0.026687326
57	0x3d7110f3	0.058854055
58	0x3d85f1a7	0.06540232
59	0xbc8ca3b3	-0.017167902
60	0xbcc708cc	-0.024296187
61	0xbace0cab	-0.0015720328
62	0x3cbc3306	0.022973549
63	0xbd6c1898	-0.057640642
64	0x3d5cb516	0.053883635
65	0x3d303298	0.043017
66	0xbc6ee120	-0.014580041
67	0x3ababf33	0.0014247656
68	0xbd8f14c0	-0.069863796
69	0xbda730d6	-0.081636116
70	0xbccb0b63	-0.024785703
71	0x3d1a4098	0.037659258
72	0x3cb4803a	0.0220338
73	0xbd03c3c7	-0.03216913
74	0x3caf3d1f	0.02139145
75	0xbd846eee	-0.06466471
76	0x3d7cac36	0.06168767
77	0xbcf3c0a9	-0.029754953
78	0x3c290846	0.010316914
79	0xbc927579	-0.017878281
80	0xbd677c74	-0.056515172
81	0xbaed3360	-0.0018096976
82	0xbcc40086	-0.02392603
83	0xbd2cdab9	-0.042200778
84	0x3d80c1bc	0.06286952
85	0xbcac16b1	-0.021006914
86	0xbd00c959	-0.03144202
87	0x3ccf86c7	0.025332822
88	0xbd8039a1	-0.06260992
89	0xbd3e3496	-0.04643687
90	0xbd9b63a2	-0.07587363
91	0x3c66af23	0.014079842
92	0xbc914ccb	-0.017736813
93	0xbd454ef5	-0.048171002
94	0xbdb5c183	-0.088748
95	0xbd6905eb	-0.05689041
96	0x3c268048	0.010162421
97	0xbd19443d	-0.037418593
98	0x3d75c068	0.059997946
99	0x3d4038b4	0.046929076
100	0xbbd944aa	-0.0066305
101	0xbd27a251	-0.04092628
102	0x3d281010	0.041030943
103	0xbdac9a25	-0.08427838
104	0xbdb199ed	-0.08671937
105	0x3c85b5d9	0.016322063
106	0xbd4c81ac	-0.049928352
107	0x3cc28ad8	0.023747846
108	0x3d36bdbf	0.04461455
109	0x3c181e22	0.009284528
110	0xbd56ab27	-0.052409317
111	0xbd5ddac6	-0.054163717
112	0xbd89e1c1	-0.06732512
113	0xbd845da9	-0.06463177
114	0x3d34222d	0.043977905
115	0x3c815d1e	0.015791472
116	0xbcd5c4c5	-0.026094804
117	0xbdb59aac	-0.08867392
118	0x3b711d42	0.003679112
119	0xbd8e78f2	-0.06956662
120	0x3d156424	0.036472455
121	0xbdb30152	-0.08740486
122	0x3cc1fd47	0.023680342
123	0xbc8a4622	-0.016879145
124	0x3ce84e8b	0.028357765
125	0xbdb5fc26	-0.08885984
126	0xbda7fdea	-0.08202727
127	0x3c2a575e	0.0103968065
128	0x3d1eac88	0.038738757
129	0x3d898668	0.06715089
130	0x3c0d7400	0.008633614
131	0xbd3be0be	-0.045868628
132	0xbdbd4a71	-0.09242714
133	0x3d5b354e	0.053517632
134	0x3cd30e7f	0.025763748
135	0x3cbceb5e	0.02306145
136	0x3d893007	0.066986136
137	0xbc1052d5	-0.008808811
138	0xbd15c0ae	-0.036560707
139	0xbd8a9bcf	-0.067679994
140	0xbcba8a67	-0.022771074
141	0x3c351678	0.01105272
142	0x3dc5d949	0.096605845
143	0x3d3fcf83	0.046828758
144	0xbcdf3bca	-0.02725019
145	0xbcecf080	-0.028923273
146	0x3c3087c5	0.0107745575
147	0x3d6a9edb	0.057280403
148	0xbd6c5aff	-0.05770397
149	0xbdaad1f9	-0.0834083
150	0x3d6c4349	0.057681356
151	0x3d9f80ae	0.077882156
152	0x3dc56fe8	0.09640485
153	0xbd969552	-0.07352699
154	0x3df1eb6a	0.1181248
155	0x3c17b479	0.009259337
156	0xbdb50bc7	-0.08840137
157	0xbd98467a	-0.07435317
158	0xbd120d8d	-0.035657454
159	0xbcb70dca	-0.022345442
160	0x3c7ed153	0.0155528365
161	0xbdc89f15	-0.097959675
162	0xbc50fcef	-0.012755617
163	0xbdb60d50	-0.08889258
164	0xbc8f4b45	-0.017491946
165	0x3bdb8ba7	0.0066999975
166	0x3dd890cf	0.10574495
167	0xbd0f2d21	-0.034955148
168	0x3b0bfee8	0.0021361653
169	0xbcecf93d	-0.02892744
170	0x3d6ad9d9	0.057336662
171	0xbe105fb8	-0.14099014
172	0xbccb0eb2	-0.02478728
173	0xbd16f3c0	-0.036853552
174	0x3cf782ee	0.0302138
175	0x3d44791d	0.047967065
176	0x3d6fb397	0.05852088
177	0xbda58285	-0.08081535
178	0xbd8c6195	-0.0685455
179	0xbd0c713a	-0.03428767
180	0xbe400bbd	-0.18754478
181	0x3dbc04b3	0.09180584
182	0x3daef5de	0.08542989
183	0xbdf4615a	-0.11932631
184	0xbbca78d3	-0.006178954
185	0xbd4bdecb	-0.04977302
186	0xbdadde57	-0.084896736
187	0x3ce6a02b	0.028152546
188	0xbd6b3412	-0.057422705
189	0xbdbd4499	-0.092415996
190	0xbd9beb4e	-0.0761324
191	0xbd7949db	-0.06086145
192	0xbd92f51a	-0.07175656
193	0x3e2380ae	0.15967056
194	0x3d9d576c	0.0768269
195	0xbd9574e3	-0.07297685
196	0xbc9ead12	-0.019369636
197	0xbda99e4c	-0.08282146
198	0xbd7dc3d7	-0.061954346
199	0xbbb67472	-0.0055680806
200	0xbddd77ad	-0.10813842
201	0x3d76983f	0.060203787
202	0x3d5d06ff	0.05396175
203	0xbdab9c6f	-0.08379447
204	0xbd02f775	-0.031974275
205	0xbdbf395e	-0.09337114
206	0x3cf7371f	0.030177651
207	0xbd7eeb70	-0.06223625
208	0xbb6c213d	-0.0036030554
209	0xbdb33dbe	-0.08752011
210	0xbdf7d3ff	-0.12100982
211	0x3b4face5	0.0031688747
212	0xbd1e500f	-0.03865057
213	0x3d006f0d	0.031355906
214	0xbd455454	-0.048176125
215	0x3dc500d0	0.096192956
216	0xbd73f77a	-0.059562184
217	0x3d6860eb	0.056733053
218	0x3cc460ea	0.023971993
219	0xbc060bf0	-0.008181557
220	0xbc2aa58c	-0.010415446
221	0xbd2aafc9	-0.041671548
222	0xbd86af40	-0.06576395
223	0x3caa64f6	0.020800095
224	0x3ce0da0f	0.027447728
225	0x3db0dade	0.086354956
226	0x3a35db81	0.00069373107
227	0xbdde0ac0	-0.10841894
228	0xbd2e1d46	-0.042508386
229	0xbe26a095	-0.16272195
230	0xbd9efd34	-0.077631384
231	0xbcf0f84f	-0.029415278
232	0xbd0af8d4	-0.033928707
233	0x3c2764c4	0.0102168955
234	0xbe45314b	-0.19257085
235	0x3d399824	0.04531111
236	0xbd9520ef	-0.07281672
237	0xbcc13553	-0.023584997
238	0x3de58b04	0.11208156
239	0xbd824f93	-0.06362834
240	0xbd81f2eb	-0.06345161
241	0xbdf55423	-0.119789384
242	0x3d157f2d	0.036498237
243	0xbd781de7	-0.060575392
244	0xbda9b08d	-0.082856275
245	0xbcfac573	-0.03061173
246	0x3daa15da	0.08304949
247	0x3dea1cff	0.11431312
248	0xbbf5b55e	-0.0074984273
249	0x3d924ec0	0.071439266
250	0x3d73972b	0.059470337
251	0xbd00de7d	-0.03146218
252	0xbca889a8	-0.020573452
253	0x3ccbd012	0.02487949
254	0xbe490b55	-0.19633229
255	0xbc868038	-0.016418561

fc2.bias f4 [84]
0	0xbd277d64	-0.040891066
1	0x3c9f075c	0.019412689
2	0x3e5eabbb	0.21745197
3	0x3df12770	0.117751
4	0x3e99914c	0.29993665
5	0x3dd32c42	0.10311176
6	0x3dfcb2ab	0.12338766
7	0x3bc78b90	0.006089635
8	0xbc47db86	-0.012198335
9	0x3c2e7f22	0.010650428
10	0x3ecb3c5a	0.39694482
11	0x3d13cb78	0.036082715
12	0xbd9ce914	-0.076616436
13	0x3e3f779b	0.1869797
14	0x3ded462a	0.11585648
15	0x3e21fab4	0.15818292
16	0xbddc551c	-0.10758421
17	0x3d164374	0.036685422
18	0x3dcfacf9	0.10140414
19	0x3e89a6ae	0.2688498
20	0x3dd84008	0.10559088
21	0xbc61c77f	-0.013780474
22	0xbda5de1a	-0.08099003
23	0x3ee3ccf8	0.44492316
24	0xbd0bdd06	-0.03414633
25	0x3e989fa8	0.29809308
26	0x3eba1bb2	0.36349255
27	0x3d731fea	0.059356607
28	0x3dbc9be8	0.09209424
29	0x3d268c1d	0.040660966
30	0x3e9e8301	0.30959323
31	0xbdc05803	-0.09391787
32	0x3dee72bf	0.1164298
33	0xbdf9ac39	-0.12191052
34	0x3ea081ed	0.31349126
35	0xbd976723	-0.07392719
36	0xbd343d30	-0.044003665
37	0xbdcfa7f0	-0.101394534
38	0x3e907727	0.28215906
39	0xbe04e131	-0.12976529
40	0x3ed3393d	0.41254607
41	0x3d23c5b4	0.039983466
42	0x3e73b49f	0.2379937
43	0x3df476d4	0.11936727
44	0x3dfcaaa7	0.12337237
45	0xbdf1a554	-0.11799112
46	0x3dd45a87	0.10368829
47	0xbe29a480	-0.16566658
48	0xbe051166	-0.12994918
49	0x3f229538	0.6350894
50	0x3ea56434	0.3230301
51	0xbe17d657	-0.14827858
52	0x3d4f7910	0.050652564
53	0xbe0b250e	-0.13588354
54	0x3de7507f	0.1129465
55	0x3d817d83	0.063227676
56	0x3e9515d2	0.2911821
57	0x3d9bf54b	0.07615145
58	0x3d228883	0.03968097
59	0x3f0dd9ba	0.5541035
60	0xbc42eea1	-0.011897714
61	0xbdaea1b2	-0.08526935
62	0xbc31b452	-0.010846214
63	0xbcf7dfb0	-0.03025803
64	0x3ee9f133	0.45691833
65	0x3e7fc087	0.24975787
66	0x3ed819b5	0.42207113
67	0xbd4c82ee	-0.04992955
68	0x3f08dbde	0.5346049
69	0xbdd7d06e	-0.10537802
70	0xbda49ee9	-0.08038122
71	0xbdad81fb	-0.084720574
72	0xbd83b24e	-0.06430493
73	0x3e8425bd	0.25810042
74	0xbd4c18a8	-0.0498282
75	0xbd0e1e5a	-0.034696914
76	0xbdebd55f	-0.11515307
77	0x3efb123d	0.49037352
78	0xbdae9e73	-0.085263155
79	0xbdf1c404	-0.11804965
80	0xbe02e892	-0.12784031
81	0x3da9a990	0.082842946
82	0x3e78413c	0.24243635
83	0x3e20bc39	0.15696801

fc3.weight f4 [10, 84]
0	0x3cbc64db	0.02299731
1	0xbd8f1459	-0.06986303
2	0x3e4b99b2	0.19882849
3	0xbe29b532	-0.16573027
4	0x3e5e1d22	0.21690801
5	0xbe095b16	-0.13413653
6	0x3c8f2577	0.01747392
7	0xbdc8422c	-0.09778246
8	0x3d3f6263	0.04672469
9	0x3e19e959	0.15030421
10	0x3c910552	0.017702732
11	0xbdbc8694	-0.09205356
12	0x3d962cbe	0.07332753
13	0xbe8c604d	-0.27417222
14	0xbca19d31	-0.019728275
15	0x3e808ea0	0.25108814
16	0xbdbd3edc	-0.09240505
17	0x3b6ccb16	0.003613179
18	0xbc331b15	-0.01093175
19	0x3e81a75b	0.25322995
20	0x3ca6eb51	0.02037588
21	0x3d85d52d	0.06534801
22	0x3d3ad1c8	0.04561022
23	0xbee02b4d	-0.43783036
24	0xbdafd253	-0.08585038
25	0x3ea0cf2f	0.3140807
26	0x3ecdf74c	0.40227735
27	0x3b62db54	0.0034615593
28	0x3e030319	0.1279415
29	0x3e1bd62f	0.15218423
30	0x3ea27218	0.31727672
31	0x3d96c960	0.07362628
32	0xbcc946e4	-0.024569936
33	0x3d9be434	0.07611886
34	0xbe892e42	-0.26793104
35	0x3cd07347	0.025445594
36	0xbe25fa5a	-0.16208783
37	0x3ceb81d0	0.028748423
38	0xbe29ea29	-0.16593231
39	0x3d80abe7	0.06282788
40	0x3e3c8a15	0.18412049
41	0x3e65be2f	0.2243583
42	0xbe6cff2a	-0.23144212
43	0x3dd72280	0.10504627
44	0x3e369a6b	0.17832343
45	0x3d5e4bd7	0.054271545
46	0x3d5ed5d1	0.05440313
47	0xbcce601d	-0.025192315
48	0xbd193a19	-0.037408922
49	0x3ebd05e5	0.3691856
50	0x3e6370a0	0.22210932
51	0x3d892cb4	0.066979796
52	0xbc7b35a3	-0.015332612
53	0xbcba288e	-0.022724416
54	0x3d71cba0	0.059032083
55	0xbe4456f3	-0.19173793
56	0x3de71366	0.11282997
57	0xbacea070	-0.0015764367
58	0xbd894c41	-0.067039974
59	0xbedb01cd	-0.4277481
60	0x3c2c31bf	0.010509907
61	0x3d242b2c	0.040080234
62	0x3da0ba9d	0.07848094
63	0xbd566cbe	-0.0523498
64	0x3e9c965f	0.30583474
65	0xbeaa3585	-0.33243957
66	0x3eb7999a	0.35859376
67	0xbd0ae937	-0.033913817
68	0x3c2e5f05	0.010642772
69	0x3d00aca8	0.031414658
70	0xbd14b39c	-0.0363041
71	0x3d141347	0.036151197
72	0xbd0a8948	-0.033822328
73	0xbe0e0efa	-0.138729
74	0x3cbb7ad6	0.022885721
75	0x3d852165	0.0650051
76	0xbc22d490	-0.009938374
77	0x3e32f621	0.17476703
78	0x3d82c809	0.0638581
79	0xbdc4d76d	-0.09611402
80	0xbcdab71f	-0.026698647
81	0x3cd88ad5	0.026433388
82	0xbed09bda	-0.40743905
83	0xbe5babd1	-0.21452262
84	0x3d2d2443	0.04227091
85	0xbe0366c1	-0.12832166
86	0x3e2816d1	0.16414954
87	0xbd670662	-0.05640257
88	0x3e087e9c	0.13329548
89	0x3e321fe2	0.17394975
90	0xbd94879c	-0.07252428
91	0x3bd2a792	0.0064286673
92	0x3daa791c	0.08323881
93	0xbe1c5a42	-0.15268806
94	0xbf32516e	-0.696555
95	0x3df9bd3a	0.12194295
96	0x3cdc6a46	0.026906144
97	0x3e38a09d	0.18030019
98	0x3e0f3e0b	0.13988511
99	0x3e164814	0.14675933
100	0x3c9d82dc	0.019227438
101	0xbd2254cb	-0.039631646
102	0x3cb2e8bd	0.021839494
103	0x3ed19e1e	0.40940946
104	0xbe0ec060	-0.13940573
105	0x3da3bc7e	0.079949364
106	0xbd5fcd75	-0.0546393
107	0xbed98c8d	-0.42490044
108	0x3de93d9d	0.11388705
109	0x3e11303d	0.14178558
110	0x3d9ecbc8	0.07753712
111	0xbe195489	-0.14973654
112	0x3dc2b94e	0.09508
113	0x3e1e9bb7	0.15489088
114	0x3ed3b0f2	0.41345936
115	0xbc8e51fa	-0.017373074
116	0xbe61e5a3	-0.22060256
117	0x3d2ecef1	0.042677823
118	0x3d78de80	0.060759068
119	0x3d78dc86	0.060757183
120	0x3e497cfb	0.19676583
121	0x3d0cf228	0.034410626
122	0xbca41a93	-0.020032203
123	0x3c6edb28	0.014578618
124	0x3dfc9823	0.12333705
125	0x3ca5baac	0.020230614
126	0xbdb6293f	-0.08894586
127	0xbe17a7d6	-0.14810118
128	0x3d90a498	0.07062644
129	0x3aeff228	0.0018306421
130	0x3e29392a	0.16525713
131	0xbe11f2ef	-0.14252828
132	0xb9635f37	-0.00021683877
133	0x3f088fa7	0.53344196
134	0xbecc0246	-0.39845484
135	0x3da84d75	0.08217899
136	0x3e460915	0.19339402
137	0x3e055534	0.13020784
138	0xbe1e4873	-0.15457325
139	0x3da4f3e8	0.08054334
140	0x3d58adb9	0.05290005
141	0x3df22c68	0.11824876
142	0x3dcdc486	0.100472495
143	0xbec8a0e0	-0.39185238
144	0xbc2d312c	-0.0105708055
145	0xbd8e7459	-0.06955785
146	0xbdc1b54e	-0.09458409
147	0x3e71b320	0.23603487
148	0xbe940bf3	-0.28915367
149	0xbe844cd9	-0.2583988
150	0x3e2b12ea	0.16706434
151	0xbc9d04ea	-0.019167382
152	0xbe9fbbb0	-0.31197882
153	0x3d8366cf	0.064160936
154	0xbc8994fa	-0.01679467
155	0x3d5e2a52	0.05423958
156	0x3da08efd	0.07839773
157	0xbdf6d2d5	-0.12051932
158	0x3d2023de	0.039096706
159	0x3cb8ff1a	0.02258258
160	0xbdd43831	-0.1036228
161	0xbf011148	-0.50416994
162	0xbda05a2e	-0.078297004
163	0x3d37b714	0.04485233
164	0x3d1d2b92	0.03837163
165	0xbd9125ae	-0.07087265
166	0xbe9d2edf	-0.30699822
167	0xbec78846	-0.38971156
168	0x3aceeb9b	0.0015786769
169	0x3b28b1b7	0.0025740692
170	0xbe0470e0	-0.12933683
171	0x3d9fb511	0.077982076
172	0xbd9e8876	-0.077408716
173	0xbe7f2206	-0.24915323
174	0xbbb701d2	-0.005584934
175	0x3e53c087	0.20678912
176	0x3de9b989	0.11412341
177	0x3e1be77e	0.15225026
178	0x3e8e388c	0.27777517
179	0x3c86c311	0.016450437
180	0xbdcd5de1	-0.100276716
181	0x3d7cf7b5	0.06175967
182	0xbd186aa8	-0.03721109
183	0x3c0f2893	0.008737701
184	0x3dd94357	0.10608547
185	0x3dc8e6df	0.0980966
186	0x3def3f7f	0.11682033
187	0xbe4c37eb	-0.19943206
188	0x3e83aa90	0.25716066
189	0xbdca0563	-0.09864309
190	0x3c7f4803	0.015581134
191	0x3eb26a63	0.34846792
192	0x3d58f16d	0.052964617
193	0xbdb08558	-0.08619183
194	0x3d4f4f78	0.050612897
195	0x3ccfac89	0.025350826
196	0x3e322c04	0.17399603
197	0xbe01b304	-0.12665945
198	0xbe87eff6	-0.26550263
199	0x3d7510eb	0.059830587
200	0x3defe684	0.11713889
201	0xbd993034	-0.07479897
202	0x3cf0b873	0.029384827
203	0xbcad5a25	-0.021161148
204	0xbcb1e838	-0.021717176
205	0xbd7a47c5	-0.0611036
206	0x3ad8219e	0.0016489511
207	0x3da2d990	0.07951653
208	0xbc1e1a06	-0.009649759
209	0x3db24d52	0.08706154
210	0x3e2a3449	0.16621508
211	0x3d899b85	0.06719116
212	0x3e655cb1	0.2239864
213	0xbc068bea	-0.008212069
214	0xbd1318a9	-0.03591219
215	0xbc9e6315	-0.019334355
216	0xbcf52cf5	-0.029928664
217	0x3d60a3b1	0.05484361
218	0x3e040093	0.12890844
219	0xbdb39734	-0.08769074
220	0xbdec45f5	-0.11536781
221	0xbcefc381	-0.029268028
222	0xbd2b7921	-0.041863564
223	0x3e229b14	0.1587947
224	0xbca238fe	-0.019802567
225	0xbdc2dd00	-0.09514809
226	0xbe4170c9	-0.1889068
227	0x3e9e841d	0.3096017
228	0x3e54f9a3	0.20798354
229	0xbc1e00c8	-0.009643741
230	0x3dc95d84	0.0983229
231	0xbd701fe7	-0.058624174
232	0x3e4a5b7b	0.1976146
233	0x3d107623	0.035268914
234	0xbc39e074	-0.011345018
235	0xbdd73be4	-0.1050947
236	0x3ee5c606	0.44877642
237	0x3dce4e71	0.10073555
238	0x3d45b5df	0.04826915
239	0xbc15ad18	-0.009135507
240	0xbd64fc67	-0.055904772
241	0xbd89fca0	-0.067376375
242	0xbd9ddc55	-0.077080406
243	0xbdc38fce	-0.09548913
244	0x3d865115	0.06558434
245	0x3d690332	0.056887813
246	0xbe1c0d82	-0.15239528
247	0xbceba17e	-0.028763529
248	0xbd660040	-0.056152582
249	0x3d48c077	0.049011674
250	0x3dee10db	0.11624309
251	0x3e8a152e	0.26969284
252	0x3bfe4e4d	0.007760799
253	0xbd9c42cf	-0.0762993
254	0xbeb84daa	-0.35996753
255	0x3dac3c0a	0.08409889

fc3.bias f4 [10]
0	0xbe2bdd31	-0.16783597
1	0x3e82aba9	0.2552159
2	0xbe2ac387	-0.1667615
3	0x3dbbabd9	0.09163637
4	0xbe54a380	-0.20765495
5	0x3e0f1882	0.13974193
6	0x3ddd310f	0.10800373
7	0x3d221809	0.039573703
8	0x3d2814b2	0.04103536
9	0x3e3f428a	0.18677726
